trained_model_client_2.pt (torch, 657250 bytes, 12 tensors)

conv1.weight f4 [16, 3, 3, 3]
000000 5b b4 20 3e ce ff 4a bc 1b 6e 0a 3e 96 d8 42 be
       0.156938 -0.01239009 0.13518564 -0.19027933
000010 c5 93 cb bd 05 22 e4 3d 79 b0 2d be bb f5 84 3d
       -0.09940294 0.11139301 -0.1696185 0.06492182
000020 9e a1 77 3e 4f ea 9b 3e a7 ab be bd f0 1b a7 bd
       0.24182746 0.304522 -0.09310084 -0.081596255
000030 b1 f0 56 3e 61 86 68 3d 27 0d 1e 3e 5f 38 07 3e
       0.20990254 0.05676878 0.15434705 0.13205098
000040 be a6 f8 3d dc 31 f2 bd 2c c8 b3 3e 0e 50 15 bd
       0.121411785 -0.11825916 0.35113657 -0.0364533
000050 17 9a 93 3d d5 fd af be 30 5b b9 be 4d 0f 60 bd
       0.07207125 -0.34373346 -0.36202383 -0.054702092
000060 03 06 92 be bc 5b 9c be 30 c4 16 3e ad a4 c9 3e
       -0.28520212 -0.30538738 0.14723277 0.3938345
000070 de 93 28 3e 33 33 04 3e 01 a9 87 be dc 34 bc 3d
       0.16462657 0.12910156 -0.26496127 0.091897696
000080 e6 f2 9e be 4e a7 b5 be 07 fe f7 3d 64 38 d2 3d
       -0.31044692 -0.35479206 0.12108999 0.10264662
000090 e6 11 0b 3e 22 0c bd bd 23 26 91 be f6 7d 0e be
       0.13581046 -0.0923083 -0.28349409 -0.13915238
0000a0 75 1c 63 be 55 ec cb bd ea 00 a5 be c4 8b c7 bd
       -0.22178824 -0.09957186 -0.3222726 -0.09743455
0000b0 e6 e7 8e bd 4c 21 cc 3e 94 45 1d 3c 7e 2d 34 3e
       -0.06977825 0.39869153 0.009599108 0.17595479
0000c0 80 a6 06 be cd 3d 9a 3d 0d 8a 09 be f1 c8 27 3e
       -0.13149452 0.07531319 -0.13431568 0.16385247
0000d0 96 61 9d 3e a0 17 9a 3e c7 b7 56 b9 6b 52 9a be
       0.30738515 0.3009615 -0.00020477093 -0.30141005
0000e0 ba 5c 97 bd e2 30 f7 3b 61 ec 9a bc dc d7 3b bc
       -0.07390733 0.007543669 -0.018911542 -0.011465039
0000f0 8d af 9c be 78 24 f9 be a4 a1 92 be 12 fc f2 3e
       -0.30602685 -0.48660636 -0.28638947 0.4745794
000100 53 06 ac 3e 26 65 19 3f 97 54 17 3e f5 61 02 3f
       0.33598575 0.59919965 0.14778362 0.5093072
000110 76 15 b9 3e d2 ef 87 3e dd 3a ab 3e c9 95 a5 3e
       0.36149186 0.26550156 0.33443347 0.3234084
000120 8b d4 06 bf 2f 7c 97 be b3 f4 5c 3e 05 f0 0c bf
       -0.52668065 -0.29586932 0.2157772 -0.5505374
000130 4b 88 07 bf 39 e1 f0 3d 92 72 e4 be c7 9d 60 be
       -0.5294234 0.11761708 -0.4461866 -0.21935187
000140 7d 89 20 3e ac 2f f8 3d a3 48 39 bd 1f 06 12 be
       0.15677448 0.12118468 -0.045235287 -0.14260148
000150 3c ba 81 be de 57 3d be 77 df c2 bc 04 25 a8 bd
       -0.25337398 -0.1849055 -0.023788197 -0.08210185
000160 8f b6 71 bd d2 5e 92 3d 47 a0 00 be 72 1a 4c be
       -0.059011992 0.07146992 -0.12561141 -0.19931963
000170 b6 87 af be 08 82 90 be d4 0a b2 be a0 f7 22 be
       -0.34283227 -0.28224206 -0.34773886 -0.15914774
000180 de 3c c5 be 6f 41 e1 be 07 42 97 be 9b e4 b2 3e
       -0.38523 -0.43995234 -0.29542562 0.34940037
000190 bc da 90 3e 2a 0a 22 3d 3e 2d 27 3e d6 72 51 3d
       0.2829188 0.039560474 0.16325852 0.051134907
0001a0 fd 5b b9 3e 8f 21 7d 3d 15 e8 f1 3a 21 8f 8f 3e
       0.36202994 0.061799582 0.0018456007 0.28038886
0001b0 4a 9a c0 be ae b6 e0 be 19 52 65 bd b4 09 97 be
       -0.37617713 -0.43889374 -0.055986498 -0.2949959
0001c0 d2 f4 ec bc 3a 67 33 bd 62 e7 d2 bd da 51 a5 bd
       -0.028925333 -0.043799616 -0.10298039 -0.080722526
0001d0 8b 58 94 be 90 3e 39 3e 5a 36 26 bc 8a 6f 59 3e
       -0.28973803 0.18090272 -0.010144794 0.21233955
0001e0 96 86 9a 3e 1d 62 ee 3e df aa b6 3e e6 87 b8 3e
       0.30180806 0.4655923 0.3567724 0.36041182
0001f0 e9 f3 ff 3e 27 0e 25 3e 0f 85 6e be d6 55 f5 be
       0.49990776 0.1611868 -0.23292945 -0.4791705
000200 74 a8 b8 bd 64 7e c0 3d 3a d0 8c 3e 81 7f 7e 3d
       -0.09016505 0.09399107 0.27502614 0.062133316
000210 e5 5c 95 3d 02 75 16 3e d5 99 88 3d 55 c5 e7 3d
       0.07293109 0.14693072 0.06669966 0.11316935
000220 6b 62 37 3e 36 a9 ba 3e b3 5e 2b 3e 2a 57 e7 3e
       0.17908637 0.36457223 0.16735344 0.45183688
000230 ea dd ea 3e 98 54 96 3d 29 95 71 3e 13 1e a8 3e
       0.45872432 0.07340354 0.23592056 0.32835445
000240 30 61 9d be e1 79 99 bd 31 26 ac 3d 2e fa 9b be
       -0.3073821 -0.0749395 0.08405722 -0.3046431
000250 a1 ae 3e be 8f 9b d0 bc 0a 73 99 bd a3 32 0e be
       -0.18621303 -0.025464801 -0.07492645 -0.13886504
000260 a5 f5 54 be 18 79 aa 3d 21 22 03 be 22 a8 b7 be
       -0.20796831 0.08323878 -0.12805988 -0.35870463
000270 fb 36 d6 3d dd 0b 46 be 78 09 dc be a7 0d c7 bd
       0.104597054 -0.19340463 -0.42975974 -0.09719401
000280 9a af 37 be 38 eb 57 be 5a 71 ed bc 08 94 8b bc
       -0.1793808 -0.21085823 -0.028984714 -0.01703836
000290 36 9b 01 bf d5 54 50 3e f0 09 3f bd b0 0c de be
       -0.5062746 0.20344861 -0.046640337 -0.43369055
0002a0 d2 f7 b1 3e 6b d2 12 3f f8 18 46 3e b8 97 ec bc
       0.34759384 0.5735232 0.19345462 -0.028880939
0002b0 c6 bd d4 be 9f 90 93 be 33 db 08 be 98 43 0e be
       -0.41551036 -0.28821275 -0.13364868 -0.13892972
0002c0 c1 b2 02 be a3 d2 97 3c c4 5d 0e 3f 1c 3c ac 3e
       -0.12763502 0.018533057 0.55611825 0.3363961
0002d0 73 6a ce 3d 28 42 b9 bd c4 12 8b be 1a 41 21 3e
       0.10078897 -0.090458214 -0.27162755 0.1574749
0002e0 02 81 48 3e 8e d9 96 bd 99 74 0f be e0 88 a0 3e
       0.19580463 -0.07365714 -0.14009322 0.31354427
0002f0 fe be 34 3e 14 25 8d 3e 96 01 89 be d2 a8 9d bc
       0.17650983 0.2756735 -0.26759022 -0.019245539
000300 58 9a ec be 31 16 61 be 96 63 f1 3e 66 5a 07 bf
       -0.46211505 -0.21981122 0.4714629 -0.5287231
000310 0b db 38 3e 70 76 17 3f 58 10 7c 3e 6a fd 8c bc
       0.18052308 0.59165096 0.2461561 -0.017210681
000320 d9 b8 97 3d d3 ad 05 bf 99 7d 91 be 66 73 03 3f
       0.07408304 -0.5221836 -0.28416136 0.5134796
000330 82 ee 12 bf 48 1e 09 3e dd 73 37 3f ca 39 8f 3e
       -0.57395184 0.13390458 0.7166117 0.27973777
000340 80 88 92 bd 97 ff fe bd ac ca c3 be c7 f3 3f be
       -0.071549416 -0.12451094 -0.38240564 -0.18745337
000350 7a 87 46 3e 82 98 14 bf 5d 23 7a 3e 61 cf 09 3f
       0.19387618 -0.5804521 0.24427553 0.5383206
000360 65 7e 87 3e 50 4e fc 3e 00 1a 1b 3f f8 a5 83 3e
       0.2646362 0.49278498 0.6058655 0.25712562
000370 d1 fe f1 3e c5 b1 01 3f cf 1d f4 3e af e7 fc bc
       0.47264722 0.5066188 0.47678992 -0.030872194
000380 52 86 2c 3e 44 82 56 bf 13 f0 37 bf 29 f2 a9 be
       0.16848114 -0.8379252 -0.718507 -0.33192566
000390 44 1a 5e bf 42 56 82 bf 82 98 17 bf f6 6e b4 be
       -0.8675883 -1.0182574 -0.59217083 -0.35240906
0003a0 b9 ee 82 bf 65 d9 35 bf 60 79 23 3e e3 8e be 3e
       -1.0229102 -0.7103484 0.1596427 0.3721839
0003b0 08 e5 bc 3e 91 cb b5 3e 87 5c b3 3e d1 76 e3 3e
       0.36893487 0.3550687 0.3503153 0.44426587
0003c0 22 29 2a 3e c4 45 8e 3e 22 d4 d2 3d 3d 93 84 3e
       0.16617253 0.27787602 0.102943674 0.25893584
0003d0 e0 73 39 3e f6 5a 72 3e 86 27 3d 3e 6d 1c 4a bd
       0.18110609 0.23667511 0.18472108 -0.049343515
0003e0 bf 61 9b bd 50 96 5a be 55 03 8e be 0d 38 4a be
       -0.07587003 -0.21346402 -0.27736917 -0.19747944
0003f0 a3 50 c4 3e b7 d2 95 3e b7 42 dd 3d 9e e0 f3 bc
       0.3834277 0.29262325 0.108037405 -0.029770192

conv1.bias f4 [16]
000000 19 30 e6 be a0 78 04 3f 1c 35 28 bf 58 bc 00 be
       -0.4495857 0.5174656 -0.6570604 -0.12571847
000010 7e c5 e4 3c cf 7f ab be 67 39 1e 3d 18 ca 1e be
       0.027926203 -0.33495948 0.038628962 -0.1550678
000020 ba 6a f1 3e 9c 44 c0 be 29 6c e9 be ba a7 21 3f
       0.47151738 -0.37552345 -0.45590332 0.63146555
000030 94 87 65 3d 4d eb 3f bf 0a a7 8f bf e2 5c 32 be
       0.0560375 -0.74968415 -1.1222851 -0.17418244

conv2.weight f4 [32, 16, 3, 3]
000000 b5 62 fd bd 35 2c bf bd c0 40 08 be 0c bb ca bd
       -0.123723425 -0.09334604 -0.1330595 -0.098989576
000010 0b f0 ed 3c ce 53 06 3d d9 5e 2d 3d a9 fd 93 bd
       0.029045125 0.032794766 0.042326782 -0.07226116
000020 bd f3 76 3d a2 13 85 3c 5c 7d 6b 3e d2 05 2b 3e
       0.06029104 0.016244713 0.2299704 0.16701439
000030 ed e4 90 bd bb 9d 8e 3d 0c 21 71 bd 96 35 40 3e
       -0.07074914 0.069636784 -0.058869407 0.18770441
000040 48 0d 84 3d 5d d8 05 3d 0f 93 2b bd f2 a0 e8 be
       0.06447846 0.032677043 -0.041888293 -0.45435292
000050 ee 0b a7 be 0b 1f ae bc 9c 0e 86 bd 91 35 7b bd
       -0.3262629 -0.021255037 -0.06545755 -0.06133038
000060 b4 81 09 be 2d 7e ce bd 4d 68 02 bd 0a cc 4f bd
       -0.13428384 -0.1008266 -0.03183775 -0.050731696
000070 62 73 01 be 73 b6 e2 bd d9 53 15 be 12 83 0b be
       -0.12641671 -0.11069956 -0.14582767 -0.13624218
000080 aa a2 d3 bd ec 36 96 3d 62 3b 28 3d 35 de ea bd
       -0.1033376 0.07334694 0.041072257 -0.11468164
000090 87 9b 35 be 26 9e 00 3d 6c 24 bb bd 59 67 49 3e
       -0.1773511 0.031400822 -0.09137806 0.1966833
0000a0 b0 66 93 bd 85 fa 39 be f7 fe aa bb a3 9d b0 3d
       -0.071973205 -0.18161972 -0.0052183825 0.08623817
0000b0 99 fa 4b bb 44 09 93 be f3 c2 23 be eb eb 98 be
       -0.003112471 -0.28718007 -0.15992336 -0.2986749
0000c0 6a c0 ad be d2 96 25 be d8 e1 8c be 61 fe 6a be
       -0.33935863 -0.16170815 -0.27516055 -0.229486
0000d0 81 3e 2a be a0 db 00 bc df 9a 9d bc f9 27 74 3e
       -0.16625406 -0.007864863 -0.019238887 0.23843373
0000e0 f0 a5 59 3e 2e 58 89 bd 33 ae 4b be 48 60 9e bd
       0.21254706 -0.06706272 -0.1989067 -0.07733208
0000f0 8f df 09 3e 50 37 b4 bd d3 b4 00 bd 1e c4 80 3e
       0.13464187 -0.087996125 -0.031422447 0.25149626
000100 a6 fd d2 3e 21 89 20 3e a4 b9 1b bd 10 f5 45 3d
       0.41209143 0.1567731 -0.038018838 0.048329413
000110 a6 0d 85 3d 09 10 17 3e 8b fd 42 be bf 95 1a 3d
       0.06496744 0.1475221 -0.19042031 0.037740465
000120 59 72 4d 3d 7c 61 2c be 59 2e 82 3b 37 06 87 be
       0.05015788 -0.16834062 0.00397281 -0.2637193
000130 81 9b 7b be e6 2f 68 be e4 1f 96 bd 76 b3 75 3d
       -0.24571039 -0.22674522 -0.073303014 0.0599856
000140 cc f8 19 3d 19 d0 d7 3d 77 11 2a 3d 31 44 8a bd
       0.037590787 0.10537738 0.041520562 -0.06751288
000150 10 05 e3 bc b4 a8 57 3d 7a 70 12 bd 35 b7 c0 3d
       -0.027712375 0.052651122 -0.035751797 0.09409944
000160 11 df 1d bd 08 07 4f 3c 9f c1 52 be 50 6c 40 3e
       -0.03854281 0.012635954 -0.20581673 0.18791318
000170 14 f6 cc 3e 52 f2 b5 3d a2 25 2d bd 7b cc ab 3e
       0.40031493 0.088841096 -0.042272218 0.33554444
000180 24 67 63 3e b8 ff f0 bd 6f d5 0e bc b0 39 25 3e
       0.22207314 -0.117675245 -0.008717879 0.16135287
000190 a5 58 66 3c 45 a7 35 bc 4f 53 e5 3d ff 45 9a 3d
       0.01405922 -0.011087243 0.111975305 0.07532882
0001a0 4f 7f 4f ba 9e 8f 82 3e a0 ab 54 3e 85 26 df 3c
       -0.0007915394 0.25500196 0.20768595 0.027240047
0001b0 21 2b 20 be 7c cd 00 3e bf 48 20 be dc bb 02 be
       -0.15641452 0.12578386 -0.1565275 -0.12766975
0001c0 8a 98 ec bd de ae d2 bd d5 ec 5c 3d 73 ea 88 bc
       -0.11552532 -0.102872595 0.053936798 -0.016713357
0001d0 98 8b 9f bc 04 7f 50 3e db 8f 98 3e 97 29 1b 3e
       -0.019475743 0.20360953 0.29797253 0.15152584
0001e0 e1 8f 0b be 20 28 0f be eb 85 15 3d 8f 8e 83 3e
       -0.13629104 -0.1398015 0.036504667 0.256947
0001f0 12 1e ba 3d cb bb 9b bd 69 41 62 3d b6 83 00 3e
       0.09087767 -0.07604178 0.05523816 0.12550244
000200 57 be 4e 3e 66 87 48 be 33 8c 12 3c ee 19 e5 3d
       0.20189796 -0.195829 0.008944559 0.11186586
000210 f8 7f 24 be 47 0b 3e bd a5 6c 6c bd 4a ed 9f ba
       -0.16064441 -0.046397474 -0.0577208 -0.0012201455
000220 3f 6a 49 3e ed e2 f4 3d 0d 34 02 be f8 3e 33 be
       0.19669436 0.11957345 -0.12715168 -0.1750449
000230 4c 62 16 be a4 83 69 bc f6 51 b4 bc c7 db 77 be
       -0.14685935 -0.014252577 -0.022011738 -0.24204932
000240 4f db 59 be c9 d2 41 bd a0 ba ac ba e2 f2 b4 bd
       -0.21275066 -0.04732016 -0.0013178177 -0.08835389
000250 83 0b fb 3a 44 c1 67 3e 6d ea fb bd e1 a2 18 3e
       0.0019153211 0.22632319 -0.123005725 0.14905883
000260 a3 61 24 3e a8 8b d6 3c 0d 44 45 be 62 41 08 be
       0.1605287 0.02618964 -0.1926424 -0.13306192
000270 44 f5 04 bd 56 35 9c 3d 14 ff 25 bd e7 a3 b6 3d
       -0.032460466 0.076273605 -0.040526465 0.08917981
000280 c1 31 d1 3d 37 2d 80 3d 67 d8 c1 be d8 0d 5d bd
       0.10214568 0.06258624 -0.37860414 -0.05396828
000290 aa d8 2c 3d 6f 28 10 be 0b 7e 66 bd 40 a0 ab 3e
       0.042198814 -0.14077924 -0.056272548 0.335207
0002a0 18 fb 44 bd 65 98 d5 3d da 5d 66 3e 7c c2 0d bd
       -0.048091024 0.104294576 0.22496739 -0.034609303
0002b0 b7 de 0b bd a0 73 bf bd 3c e2 b3 bd b3 d1 75 bd
       -0.034147944 -0.093482256 -0.08783385 -0.060014438
0002c0 52 66 16 bd 1b f7 bb 3c c8 4d d5 3d 4e 3e cf 3d
       -0.036718674 0.022944978 0.10415226 0.101193056
0002d0 84 61 a6 bc ad 58 e0 3d 8f 95 69 bd cc ae b2 bb
       -0.020310171 0.109544136 -0.057027396 -0.0054529663
0002e0 35 cb c6 3d ca fe 73 3d 2d ad 75 3d f1 a2 d9 bd
       0.097067274 0.059569158 0.059979606 -0.10626782
0002f0 9d 19 8b bc c4 d3 cb bd 49 dc 22 be 1e b1 c4 3d
       -0.016979987 -0.099525005 -0.15904345 0.09604095
000300 13 48 27 3c a6 25 01 be b8 36 1a 3e 8f ca 4e 3d
       0.010210055 -0.12612018 0.15059936 0.050486144
000310 bf 32 e7 3d 06 58 3e 3e ac 97 9d 3e 1a 22 67 bc
       0.11288976 0.18588266 0.3077978 -0.014107252
000320 cf d1 cf bd 31 a2 35 3e 01 86 98 bd 0d e6 72 3d
       -0.1014744 0.17737652 -0.07447434 0.059301425
000330 2e dc cb 3d 57 d3 2e 3e 42 32 19 3e b2 f1 d3 bd
       0.09954105 0.17072807 0.14960578 -0.10348834
000340 30 bb aa 3d b1 62 23 bd 19 6d 8c 3e 9a f1 b1 bd
       0.083364844 -0.03988904 0.27426985 -0.0868866
000350 19 7a 17 3e 63 53 6a 3e 26 a0 91 3e 8c ab 64 3e
       0.1479267 0.22883372 0.28442496 0.22331065
000360 f7 16 fd bd 89 df a9 bd f1 64 90 bd 35 98 15 bd
       -0.12357896 -0.08294589 -0.07050503 -0.03652211
000370 37 03 1b be 83 33 35 3d 4c 7b 2d bd 5d 91 12 be
       -0.15137945 0.04423858 -0.042353913 -0.14313264
000380 a5 36 d2 ba d1 a5 8a bd cc 7d 6e bd db ab bd bd
       -0.0016038014 -0.06769908 -0.058225438 -0.092612945
000390 0d 9a 62 3d 6a d5 bf bc 78 79 23 3e 93 19 14 be
       0.055322696 -0.023417193 0.15964305 -0.14462881
0003a0 2d f1 cc 3d 18 e2 57 3d 73 42 47 3e af 87 c9 bd
       0.10006938 0.052705854 0.19458942 -0.09840333
0003b0 96 43 20 be b6 cc bb bd ba 4f a9 3d 29 70 89 bd
       -0.15650782 -0.09169905 0.0826716 -0.06710846
0003c0 f7 b5 46 3c 6e d9 b0 3e fd 19 3b bd d0 64 32 be
       0.012128345 0.34540886 -0.04567908 -0.1742127
0003d0 8f db 57 be a2 60 0a be aa 39 ba 3d 7b fc 83 bd
       -0.21079849 -0.13513425 0.0909303 -0.06444641
0003e0 15 42 a1 bc 2f 00 8f 3d 1d 39 0e bd b4 ae 0b 3d
       -0.01968483 0.06982457 -0.034722436 0.034102157
0003f0 87 c5 d1 bd 80 08 8a be f7 09 9e be 79 7d 47 bd
       -0.102427535 -0.2695961 -0.30866978 -0.048703644

conv2.bias f4 [32]
000000 42 87 15 be 16 d1 24 bd ef c3 81 bd 0a 98 4e 3c
       -0.14602378 -0.040238462 -0.063361995 0.012609491
000010 aa 18 db be 7c 22 ac be ea 8c 1c 3e e8 cc 5f be
       -0.42792255 -0.3362006 0.1528813 -0.2185551
000020 2d 81 46 bd c5 b7 66 bb 6a 73 f0 3e 97 d6 99 3e
       -0.048463035 -0.003520475 0.46963054 0.30046532
000030 a8 c3 6f 3e 09 16 8c be d9 9a 39 be 49 b8 d8 be
       0.2341448 -0.2736056 -0.18125476 -0.42328098
000040 8c 2f 63 be 02 87 e4 be 05 9b 8d 3d ad 81 21 bf
       -0.22186106 -0.44634253 0.06914333 -0.63088495
000050 62 c0 44 bd 6f bf 3a be f0 a0 ff bd 62 63 21 be
       -0.048035033 -0.18237089 -0.12481868 -0.15760568
000060 b3 59 79 3d 61 1d 3b be a6 38 2e bf 0c 10 18 be
       0.06087656 -0.18272926 -0.6805519 -0.14849871
000070 11 26 89 be ad 6c a7 be 7a 8f 36 3e 74 b9 0e bf
       -0.26786855 -0.327001 0.1782817 -0.5575173

conv3.weight f4 [64, 32, 3, 3]
000000 b2 2c 77 3e 42 12 ec 3d 34 d0 02 bc 15 e1 92 3c
       0.24138144 0.1152692 -0.00798421 0.017929593
000010 13 4e 12 be 5b ec a7 bd 87 1a 20 be c8 74 18 be
       -0.14287595 -0.08199378 -0.1563512 -0.14888299
000020 f3 b7 d8 bd b7 4b 53 3e 5c af c2 3d 3a 09 9d 3c
       -0.105819605 0.20634352 0.095061034 0.019169439
000030 70 07 c7 bd c6 f9 e6 bd a0 d0 82 bd d8 17 04 be
       -0.097182155 -0.11278109 -0.06387448 -0.1289972
000040 ba 14 3e 3c 40 eb 4c 3b 56 b5 66 3e f5 77 5e bd
       0.011601621 0.003126815 0.22530112 -0.05431362
000050 dd 71 b2 bc e6 6a 3d 3e c8 f6 19 3d 57 68 59 bd
       -0.02178281 0.1849781 0.037588865 -0.05307802
000060 c9 81 1c bd f0 50 ae 3d 9d ce d4 ba a7 9c 4d bd
       -0.03820971 0.08511531 -0.0016235892 -0.050198223
000070 f5 ef b4 bc 2a 15 01 be b4 47 8c 3d 18 73 fb 3c
       -0.022087077 -0.1260573 0.06849614 0.03069453
000080 85 82 82 bb 20 8e 8f bd 53 c2 0d 3e a4 3a 9a 3d
       -0.0039828443 -0.0700953 0.1384366 0.07530716
000090 86 6e 2b be d3 f4 3d 3d 66 f1 97 bc 97 f5 98 bd
       -0.1674138 0.04637606 -0.018547725 -0.074687175
0000a0 2e 8b 9b 3d e9 7b 8d bd 23 43 b3 3d 61 09 41 3e
       0.07594906 -0.069083996 0.0875304 0.18851234
0000b0 fe 1e 32 bd c4 01 90 bc 06 10 91 3d f5 2c f9 3c
       -0.043486588 -0.017578967 0.07083134 0.030416945
0000c0 0e 24 c0 bd 9a c2 94 bd 6f 24 97 bd c6 75 c9 3d
       -0.09381877 -0.0726368 -0.07379996 0.098369166
0000d0 4e 4d f6 3d 8d 55 4b bd 57 5a 2f be 1e b1 ef 3b
       0.120264634 -0.049642134 -0.17124306 0.007314815
0000e0 b3 db a5 3d 5c fb 09 bd d2 5f 0f 3d 3d da 4c bd
       0.08098545 -0.03368698 0.03500349 -0.050012816
0000f0 c2 40 9d bd e8 e7 27 3d e3 af 2b 3d 95 e4 84 bd
       -0.07678367 0.040992647 0.041915786 -0.06488911
000100 6b b6 aa 3d 03 cf fb bc 47 25 87 bc 98 af d5 bd
       0.08335575 -0.03073836 -0.016497267 -0.104338825
000110 06 66 88 3c bb c8 eb 3d 32 06 9b 3c 0d f7 ec bd
       0.016650211 0.11512896 0.018923853 -0.11570559
000120 c8 af 2f 3d fd 6a 42 3d 82 f7 19 bd 6f db 1b bd
       0.042892247 0.047465313 -0.037589557 -0.038051065
000130 98 aa 23 3d f8 88 f2 bc c7 72 9d 3d aa 49 a9 3d
       0.039957613 -0.029606327 0.07687908 0.082660034
000140 80 37 ae bc e9 61 ad 3c df ad 8e 3d 02 83 cf bd
       -0.021266699 0.021164851 0.06966757 -0.1013241
000150 fe ad 56 3c ee 1d 13 3d 91 98 ea bb 7a 59 0c 3e
       0.013103006 0.035917215 -0.0071593006 0.13706008
000160 41 b2 aa 3c ea 83 fb 3b 9b 1a a5 bd c8 af 5d 3d
       0.020836951 0.0076756375 -0.08061715 0.054122716
000170 d8 84 fd bb 02 8a a2 bd 3e c9 f4 3b a1 6f 5c bd
       -0.0077367835 -0.07936479 0.007470279 -0.053817395
000180 15 ac ba bd 22 99 16 bd 0f ff f3 bd 53 a4 b3 bb
       -0.09114853 -0.036767133 -0.11913883 -0.0054822355
000190 05 bf 1a bd 90 74 c8 bd 07 51 13 3d a4 1c c8 bc
       -0.037779827 -0.097878575 0.035965946 -0.02442772
0001a0 4a e8 7a bd fa af 1c 3e e1 1c 20 3e ed 6e 03 bd
       -0.061256684 0.15301505 0.15636016 -0.03208821
0001b0 fe 72 d1 ba 59 ba 0f 3d 4f cf 91 3d 85 fc 40 bc
       -0.0015979705 0.035089824 0.07119619 -0.011778955
0001c0 e8 db 8d 3c 21 78 ab 3c 11 eb 24 3c 19 c4 9d bb
       0.017316774 0.020931305 0.01006581 -0.0048146364
0001d0 62 ab 39 3e f8 93 8e bc ab 94 25 3e ec 92 f5 3d
       0.18131784 -0.017404541 0.16169994 0.11990914
0001e0 6e 57 96 bd e3 03 fc 3d df 79 91 3c 04 ab e7 3c
       -0.07340895 0.12305429 0.017758308 0.028279789
0001f0 fe f8 bb 3d 5d ef 84 3d ef 5f 94 bd f9 e2 01 bd
       0.09178351 0.064909674 -0.072448604 -0.0317106
000200 6a 58 38 bd 85 be 1d 3a 49 73 35 bd 13 0e e8 3c
       -0.045006193 0.00060174643 -0.044299398 0.028327024
000210 1c 3f c6 bc df 4f 4a 3d 7f b1 91 3d aa 3a 5c 3d
       -0.024200015 0.049392577 0.07113933 0.053766884
000220 53 d0 a0 bd c8 ca ab bc 5c 90 cf bd 09 66 e3 bd
       -0.07852235 -0.020970717 -0.10134956 -0.11103446
000230 1b d2 48 3d 56 3c 17 bd 42 05 90 3d de 7a 3d 3b
       0.049028497 -0.036922775 0.07032253 0.0028912346
000240 1b 65 dd 3d 73 4a 9f 3d a2 15 09 bc 80 b5 76 3b
       0.108103 0.07777872 -0.008366974 0.0037644804
000250 d3 af bf bd e9 16 a7 bd 48 7e a6 bd 4e f8 33 bc
       -0.09359708 -0.08158667 -0.08129555 -0.010984493
000260 50 d8 df bd e2 70 1c 3e 0a e3 30 3d ae 9b 91 3a
       -0.1092993 0.15277436 0.04318527 0.0011109018
000270 51 83 cd 3d 95 59 b1 bd dd ac 85 bd 78 8b 52 bd
       0.10034812 -0.086596645 -0.06527112 -0.05140254
000280 4c b4 bd 3c 31 f1 2a bc ea 76 a8 bd d1 49 d0 3c
       0.023157261 -0.010433481 -0.08225806 0.025425823
000290 f2 ec 12 bd de d2 3d bd c6 44 bb 3b 52 0b 6c bd
       -0.0358705 -0.046343677 0.0057149855 -0.057627983
0002a0 be c3 58 bd c0 73 fa 3d 8c d0 e5 bc 06 b2 26 3e
       -0.05292105 0.12229109 -0.028053544 0.16278848
0002b0 d3 72 96 3d 28 6f e7 3c de dc a2 bd 46 d9 a4 bd
       0.0734612 0.028251246 -0.07952283 -0.08049254
0002c0 d2 31 ba bd ba 1f 27 bc 2b 8a 27 bd a2 a0 48 3c
       -0.09091534 -0.010200435 -0.04090325 0.012245329
0002d0 71 bf 21 bd af 80 bb 3d 3b 69 34 3d 7b 63 21 be
       -0.039489213 0.09155404 0.044045668 -0.15760605
0002e0 65 1f ad bc a5 c5 95 bb f9 b9 ee bd 47 41 40 3d
       -0.021133134 -0.00457068 -0.11656565 0.046937253
0002f0 cc 37 0e 3e 5e 91 ab 3c f5 3d ce 3d fc c5 98 bd
       0.13888472 0.02094334 0.10070411 -0.074596375
000300 6d be 39 bc 05 c1 af 3a cc 1a 58 bd 89 d7 08 3e
       -0.011336905 0.0013408965 -0.05275993 0.1336347
000310 fa 48 29 3d e9 24 22 bd b2 a7 c4 bc 60 3e 54 3d
       0.04132936 -0.03958598 -0.024005745 0.051817298
000320 84 a8 3f bc cf 60 85 3d 00 d8 02 3e 59 8d c5 bd
       -0.011697892 0.065126054 0.1277771 -0.096461006
000330 66 0a 3e bc ad 15 04 bc 9b d5 81 3d de 92 eb 3d
       -0.011599159 -0.0080618085 0.0633957 0.11502622
000340 15 15 93 3d 31 f0 a6 3d 0a 45 08 be b9 d3 2d be
       0.071817555 0.081512816 -0.13307586 -0.16975297
000350 66 3f 0c be b6 a1 83 bd f3 f2 21 3d 33 fc 19 3d
       -0.1369606 -0.06427328 0.039538335 0.03759403
000360 c6 09 00 bc 85 d3 2e bc 3c d7 0b bd 87 80 ed 3d
       -0.00781483 -0.010670547 -0.03414081 0.1159678
000370 79 bb 19 3d e2 00 d2 bc 94 90 1a 3e de fb af 3d
       0.037532303 -0.025635187 0.15094215 0.08592962
000380 5d 45 49 bd 29 b7 b5 bd 5e 66 81 3d fa 34 bd 3d
       -0.049138416 -0.08872826 0.06318353 0.0923862
000390 76 65 41 bd 1d 21 a9 bd 19 03 1f 3c 98 c7 49 bc
       -0.0472159 -0.08258269 0.009705328 -0.012315653
0003a0 02 45 b1 bd 74 ab 37 bd 87 c0 4e bd 45 fa ae bd
       -0.0865574 -0.044841245 -0.050476577 -0.08543829
0003b0 44 07 cd bc ad 02 8b bd 6e 0f 6f bd 69 b8 4a bd
       -0.025027879 -0.0678762 -0.058364324 -0.049492273
0003c0 ec 8c 63 bd 9d d8 d6 3d 41 30 93 3d 4b 0a 22 be
       -0.055554315 0.104905345 0.07186938 -0.15824239
0003d0 7b 71 37 be ef a5 66 be 29 16 07 be e7 95 fd bd
       -0.17914383 -0.22524236 -0.13192047 -0.12382107
0003e0 36 59 b7 bd ff b6 b3 3b e7 74 1e bd 7f 25 f4 3b
       -0.089525625 0.0054844613 -0.038685706 0.007450759
0003f0 21 88 87 bd 4e 42 45 bb 0a 16 d3 bb aa b9 a6 bd
       -0.066177614 -0.0030099335 -0.0064418362 -0.08140881

conv3.bias f4 [64]
000000 5e 02 b7 be 61 f6 7c be 81 46 3c 3d fe 90 63 be
       -0.35743994 -0.24703361 0.045965675 -0.22223279
000010 35 a3 66 3e 37 34 97 be 70 2d 2b be d1 54 c2 be
       0.22523196 -0.29532024 -0.16716552 -0.37955335
000020 37 e1 a5 bd eb 78 c8 3b 5a e2 85 bd 39 b0 01 bd
       -0.08099597 0.00611793 -0.06537314 -0.0316622
000030 0b bc 9f be dc d6 b8 bc ce f9 5e bd ac e6 bb be
       -0.31198153 -0.02256339 -0.05443745 -0.36699426
000040 42 65 ca 3d 57 1b 87 be df 9d b3 be 01 c7 46 be
       0.09882595 -0.26388046 -0.35081384 -0.19411851
000050 48 e5 49 3e 7d 3a 3f be 05 73 99 3c d0 ed 6d bc
       0.1971637 -0.18674655 0.018731603 -0.014522031
000060 71 70 36 be fb 47 fb bd a4 f8 8a 3e d1 3a 00 bc
       -0.1781633 -0.122695886 0.27142823 -0.007826523
000070 65 d2 c0 bd ad b8 3c bd bb e7 5f be 4e 5b 7a bd
       -0.094151296 -0.046074558 -0.21865742 -0.06112223
000080 57 70 0d be 7e 1d 9a be bf c6 86 3e be 0b 12 3d
       -0.13812385 -0.30100626 0.26323506 0.03565573
000090 07 b5 7f be 5e ad ed be 5e e2 02 bf 02 e7 81 be
       -0.249714 -0.4642133 -0.5112666 -0.25371557
0000a0 7f 9f d8 bd ed 7c 44 be 24 de a9 bd 9f e5 02 bf
       -0.105772965 -0.1918828 -0.08294323 -0.51131624
0000b0 36 45 8b bc 30 0f f0 3b 05 5e 18 be a5 f7 33 be
       -0.017000776 0.0073260292 -0.14879616 -0.17574938
0000c0 54 4e 23 be 68 6d 9a bd e2 cc 54 be 7d 8f b3 be
       -0.15947849 -0.07540399 -0.20781282 -0.3507041
0000d0 44 e0 b0 bd e8 89 f9 bd a2 0a d9 be fa 99 c2 be
       -0.08636525 -0.12184507 -0.42390925 -0.380081
0000e0 d5 6e c9 bd c4 35 0b 3e 01 09 07 bd 03 b1 9e be
       -0.09835593 0.13594729 -0.03296757 -0.30994424
0000f0 f4 53 75 3d 00 2f 83 be f2 56 58 bd f8 65 5a bd
       0.059894517 -0.25621796 -0.052817293 -0.0533199

fc1.weight f4 [128, 1024]
000000 84 64 d0 3b 03 92 ae bb 1b f3 15 3d 37 e3 66 3d
       0.0063596386 -0.0053274645 0.036608797 0.056369033
000010 7f 1e 19 bc 91 3f c8 bb f1 55 07 bd 95 90 6a 3d
       -0.00934565 -0.0061110933 -0.033040944 0.05726679
000020 52 5d 09 bd 4c 67 2f bc e3 ca 8e bc f8 20 33 bd
       -0.033536263 -0.01070578 -0.017430728 -0.043732613
000030 4f 09 aa bc f8 27 b3 3c b5 0b de bc e5 e2 6b bd
       -0.020756392 0.021869645 -0.027105192 -0.05758943
000040 7b ba 75 bc ec 53 b3 3c ca 1b 91 3b ef 4e 34 bd
       -0.014998074 0.021890603 0.0044283615 -0.04402059
000050 27 c8 dc bc cf 58 80 3b f9 6c 66 3c ef f2 c9 bb
       -0.026950909 0.003916837 0.014064067 -0.006162993
000060 ee 2c 1d ba aa aa 2e bc c2 7f fb 3c d4 8e 73 3a
       -0.000599577 -0.010660807 0.030700568 0.00092909974
000070 30 2e 22 3d 3d 7d a5 bb 9d 68 96 3c 66 5c 99 3c
       0.03959483 -0.00505033 0.01836043 0.018720817
000080 f1 5c 19 3d 68 3d 37 b8 f1 fd a4 3c 33 79 d5 3b
       0.03744215 -4.368779e-05 0.02014062 0.006514692
000090 4d fd 49 bd bc be c0 bc 9c 0b 1f bc 3f 88 2a bd
       -0.049313832 -0.02352845 -0.009707358 -0.04163384
0000a0 e4 2c 39 3c 44 b6 a2 bc 25 56 75 bc 1f 8f 11 bd
       0.011302207 -0.019862302 -0.014974152 -0.03553688
0000b0 25 c3 ea bb 34 d6 74 bc 5b 22 2d 3d 36 18 7c 3c
       -0.0071643763 -0.014943648 0.042269092 0.015386632
0000c0 0c 83 73 bc 1b f6 83 3b 61 06 03 3d 58 1c 81 3b
       -0.014862787 0.004027141 0.031988505 0.0039401464
0000d0 a7 cf d1 bb 77 46 fb 3b 50 de c2 bb e3 6c 60 bd
       -0.006402928 0.007668312 -0.005946912 -0.054791342
0000e0 6e dd 09 3d cc 9f 0c 3d 39 2d c3 3b c4 2f ec 3a
       0.033658437 0.03433208 0.0059563187 0.0018019606
0000f0 09 1e e7 3c 57 d2 81 ba 7a a9 8a bc 77 4f 80 bb
       0.028212564 -0.0009904605 -0.016926516 -0.003915723
000100 7d b6 69 bd 1a a3 5c bc 45 6c 21 bb 2d f0 f7 bc
       -0.0570588 -0.013466621 -0.0024631184 -0.030265892
000110 ce 6c 3d bc bb 9f cd bc 20 3b bc bc d3 22 d9 bb
       -0.011561586 -0.02510058 -0.022977412 -0.006626466
000120 3e ee e2 bc 7a d3 c2 3c e5 25 ba bb 78 01 97 bc
       -0.027701493 0.02378248 -0.005680787 -0.018433318
000130 15 d2 01 bd 00 56 e4 3c 48 dd 14 3c 16 05 4a 3d
       -0.03169449 0.02787304 0.009085961 0.049321257
000140 f9 a0 1a bd e4 ae 56 bd b8 b2 63 bd 1d fb bd bc
       -0.03775117 -0.052412882 -0.05559036 -0.02319103
000150 3a 0b d1 bc 5d 19 fd bc b2 65 ac bc df ff 9d 3c
       -0.025518049 -0.030895883 -0.021044586 0.019287048
000160 52 ca 70 bc f6 4b 83 3c 8a cc a3 3c 9e 63 79 3d
       -0.014696674 0.016027432 0.019994993 0.060886018
000170 0d 45 a0 3c c8 fc 16 bb 34 0e 18 3d f9 12 ff 3c
       0.019564176 -0.0023038853 0.03712292 0.031136977
000180 ae 2a 03 3c 27 85 ef 3a 71 01 14 3d b3 65 4c bc
       0.008005781 0.0018273935 0.036134187 -0.012475419
000190 ed e1 c8 3c 68 bf 68 3b 48 78 93 bc 16 9e 41 3d
       0.024521792 0.0035514478 -0.01800169 0.047269903
0001a0 ae e2 0b bc 98 98 0f b9 7c 38 8c 3c d0 4f 28 bd
       -0.008537931 -0.00013694388 0.017116778 -0.04109174
0001b0 55 ae 98 bc f5 53 3d 3b cc 36 a5 3a df f7 5b bd
       -0.018637815 0.0028889154 0.0012604832 -0.053703185
0001c0 5a 52 a7 3b 61 29 34 3d 2d 18 9f bc ea f3 59 bc
       0.0051062526 0.043984775 -0.019420708 -0.013302783
0001d0 fc 17 11 3c 00 37 02 bd e5 d6 25 bd 76 cb 28 bd
       0.008855816 -0.031790733 -0.040488143 -0.04120966
0001e0 ba 2d d8 bc 3e 1d 09 bd d8 ad d7 bb 71 7f 2a bc
       -0.026388992 -0.033475153 -0.006582003 -0.010406361
0001f0 46 61 be bb c0 c4 f5 ba 01 15 fb 3b 21 7c 96 3c
       -0.0058099357 -0.0018750653 0.007662416 0.018369736
000200 a4 21 7d bc cc 78 aa 3c bb 27 01 bb c8 31 a7 bb
       -0.015449915 0.020809554 -0.001970752 -0.00510237
000210 57 e4 95 3c bf 7c b1 ba 7b d7 1d bd e0 82 3b bc
       0.018297357 -0.0013541206 -0.038535576 -0.011444777
000220 d2 19 a9 3b 5a 4e ce bc 48 7d ab bb ae 51 18 bd
       0.0051605487 -0.025183845 -0.0052334405 -0.03718727
000230 99 45 00 3d 1c c3 26 bc 3b c5 33 ba 75 d4 fc bb
       0.031316373 -0.010178354 -0.0006857698 -0.0077157565
000240 cf a1 64 bc 06 fe 54 bb 06 15 1d 3d 7d 70 1c bd
       -0.013954594 -0.0032500043 0.038350128 -0.038193215
000250 f0 dc 1a bd 36 f1 06 3c 50 ee 5b bd 45 3d 44 bd
       -0.03780836 0.00823622 -0.05369407 -0.047909994
000260 8b 5c c1 bc bc 0e 87 3a 08 62 25 3d 16 93 83 bb
       -0.023603698 0.0010304074 0.040376693 -0.0040153367
000270 63 af a9 bc 88 a2 44 3c c3 0a 1b 3d 93 09 1c 3c
       -0.020713514 0.012001641 0.03785206 0.009523767
000280 d0 4b 0f bb f4 3c a1 ba 34 cd 02 3c e4 f8 d0 bc
       -0.0021865256 -0.0012301491 0.007983495 -0.025509305
000290 8b 8e 72 3d 46 82 13 bc f0 bf 68 bd 25 b0 23 3c
       0.05921797 -0.009003228 -0.05682367 0.009990727
0002a0 7b 22 3b 3d 40 4c e0 bc 90 dc 32 3c 95 31 0a bd
       0.04568718 -0.027380109 0.010916844 -0.03373869
0002b0 cd 18 cb 3b 67 5a 14 bc 38 db 08 bd 05 8b 24 3d
       0.006198025 -0.009054757 -0.03341219 0.04017164
0002c0 7c f0 33 3d 42 6a 8f 3c 62 a2 91 bc 2a 05 ea bc
       0.043930516 0.017506722 -0.017777625 -0.028566916
0002d0 4b 6f 35 3d d3 21 f5 bc e7 da e9 3c 12 00 3a 3b
       0.04429559 -0.029923355 0.028546764 0.002838139
0002e0 24 ad 1f bd 03 1a 7b 37 cb 30 1a 3d 18 18 e6 bc
       -0.03898348 1.4966822e-05 0.03764419 -0.02808766
0002f0 18 db 09 bc 59 ab 16 bc ec 7a 99 3b 33 76 12 3d
       -0.008414052 -0.009196126 0.004683843 0.035757255
000300 f2 7c 53 bd fd 1c d5 bc d0 2c 1f 3d d5 35 d8 3c
       -0.05163283 -0.0260148 0.038861096 0.026392857
000310 20 35 b6 bc 1f 74 c2 3c e5 bf c6 3c ee b5 5d ba
       -0.022242129 0.023737011 0.024261424 -0.00084575906
000320 1b 8c d3 bb 7a fe e3 3b 31 11 0c 3b 90 f6 b4 bc
       -0.006455911 0.006957826 0.0021372552 -0.022090226
000330 29 c0 ab 3c 44 b6 54 3c 58 22 0e 3c 20 1d 90 3c
       0.020965653 0.012982909 0.00867518 0.017592013
000340 1b 74 f8 ba c9 bd a3 3b 80 ba 8c bb 64 4f e5 bb
       -0.00189555 0.0049969894 -0.0042946935 -0.0069979895
000350 10 a0 0e 3d 32 2e eb 3b b2 2b b2 3b 49 a4 28 3d
       0.034820616 0.007177138 0.005437338 0.0411723
000360 d2 25 47 3c c7 1b d4 bc f8 47 bd ba 10 6a 76 bb
       0.012155013 -0.025892152 -0.0014441004 -0.003759984
000370 3b 7e 8e 3d de 33 65 bc 34 ce 6c 3c b6 a5 8d 3d
       0.0695767 -0.013989417 0.0144534595 0.069163725
000380 9b 66 23 bd 13 ef cb bc 02 7e 9a bc c5 e6 34 bd
       -0.039892774 -0.024894273 -0.018858913 -0.04416539
000390 eb 5c 28 3d 54 b9 0c 3d 3b 69 12 bd 67 eb 78 bd
       0.04110424 0.03435643 -0.035744887 -0.060771372
0003a0 ac 06 c7 3c 0c a4 99 bc 9b 07 bd 3b 62 f4 0d bc
       0.024295174 -0.018754981 0.005768729 -0.008664222
0003b0 a1 b5 e7 3c e1 09 74 bb 7d 3a b2 3c 76 d9 56 3c
       0.02828485 -0.0037237334 0.021756405 0.01311337
0003c0 a4 6b 00 bd 03 57 48 3d 72 79 34 3d 0c 8c 07 bd
       -0.031352654 0.048911106 0.04406113 -0.033092543
0003d0 24 10 12 3d 01 15 83 bd c9 5d 0b bc 39 4f 1c 3d
       0.035659924 -0.064004906 -0.008506247 0.03816149
0003e0 a8 b3 74 bc 79 07 ee bc 4c 61 63 bd d1 b6 36 bd
       -0.0149354115 -0.029056298 -0.05551271 -0.04460794
0003f0 4d 98 26 3d 71 8a b7 3c 49 83 17 bd 0c e8 5d bd
       0.04067259 0.022404881 -0.036990438 -0.054176375

fc1.bias f4 [128]
000000 f3 be df 3c f0 0b 58 3e f0 55 68 bd b6 7d a6 3d
       0.027312731 0.21098304 -0.05672258 0.08129446
000010 82 0c 3f 3c 38 c7 67 bd 29 ff 3f bc 82 be e1 3d
       0.011660697 -0.056586474 -0.01171855 0.110226646
000020 52 c4 8e 3a 30 c6 db bb fa ef 9e 3d 42 13 4d 3d
       0.0010892248 -0.0067069754 0.07760616 0.050067194
000030 fb 74 41 3a fe 37 99 3d 52 26 20 3e cc 42 fa 3c
       0.0007379797 0.07481383 0.15639618 0.03054943
000040 d0 55 da bc 30 67 89 bd 4e 41 d9 3b 8f f2 08 3d
       -0.026652247 -0.067091346 0.0066300994 0.033434447
000050 16 90 6a 3d e5 a7 9e 3c 54 90 c9 3d 5f d8 c5 bb
       0.057266317 0.019367168 0.098419815 -0.0060377563
000060 f1 7c bb 3d 40 3c ce 3d 32 10 79 3d e5 cb 29 3c
       0.0915469 0.100700855 0.06080646 0.010363554
000070 3b 07 1f 3e c4 80 0d bd 26 aa 8e 3d 28 7b 1b bc
       0.15530102 -0.03454663 0.06966047 -0.009489812
000080 16 0c 3e 3d 0d 59 e8 3c 75 f0 8f 3d ad 3b b7 3d
       0.046398245 0.028362775 0.070282854 0.08946929
000090 82 7d fa 3d bf 07 b9 bc 63 1a 30 bd 29 1c ef 3c
       0.1223097 -0.022586701 -0.042993914 0.029188232
0000a0 13 d8 0c bd 50 ff a9 bb 12 b7 91 bb 15 31 ec bc
       -0.034385752 -0.0051879063 -0.0044468725 -0.028831998
0000b0 73 83 1f bd 4a 40 fa 3c 85 86 37 3c ab a8 4f bb
       -0.03894372 0.030548234 0.011201506 -0.0031686227
0000c0 56 ac 41 bc 78 b5 90 3d 22 f2 f3 3c 00 22 bd 3c
       -0.011820873 0.070658624 0.029778544 0.023087502
0000d0 ed 37 a0 bd 5a 42 9b 3d dc cb ba bb 59 69 15 3d
       -0.07823167 0.07581015 -0.0057005715 0.03647742
0000e0 4a a5 be 3d b3 ee 20 3c 02 86 6f 3d f4 2d a0 3d
       0.0930887 0.009822535 0.05847741 0.07821265
0000f0 15 96 48 bc af 1e 13 be 0e c4 6b 3e b1 72 7c bc
       -0.012242814 -0.14367174 0.23024008 -0.015408204
000100 4a ee 61 3d 51 d8 0a 3d 52 4a b2 bb 5b bd fa bc
       0.05515889 0.0338977 -0.0054409886 -0.03060787
000110 e9 af bd 3c c8 bb 5a 3a 33 0e 80 3d 3d 1e 8b bc
       0.02315517 0.00083440216 0.06252708 -0.016982192
000120 99 02 cd bc 10 48 8c bd 0c 1a af 3d 4a 49 ec bd
       -0.025025653 -0.06849682 0.0854989 -0.11537416
000130 8d 3e d6 3d 60 41 32 bd 67 28 34 3e 4d e3 cb 3d
       0.10461149 -0.043519378 0.17593537 0.099554636
000140 9c 64 47 3d b8 90 42 3c 37 c3 51 bb e6 f8 0a 3c
       0.048679933 0.011875324 -0.0032007226 0.008482194
000150 03 e9 53 3d c6 92 07 3c df 5b 15 bd 6b da f7 bb
       0.05173589 0.00827474 -0.03646457 -0.0075638792
000160 9c 30 11 3e 5f 6b d6 bb 08 5e 3d bc 6e de a0 3a
       0.141787 -0.0065435614 -0.011558063 0.001227332
000170 5b bf ac bc 97 a3 1c 3d 00 ee 30 bd 28 43 3a bc
       -0.02108734 0.03824195 -0.043195724 -0.01136855
000180 3d dd 4e 3d ae 15 1c 3e ef cb 8e 3d 60 c9 54 bd
       0.050503958 0.15242645 0.06972491 -0.05194986
000190 e8 88 9f 3c 91 e6 4f bd 25 48 2a 3e e8 6a 4d 3c
       0.019474462 -0.050756995 0.16629083 0.0125376955
0001a0 2f 41 1c 3d a2 69 32 3d fd e8 00 bd 45 73 12 3d
       0.0381481 0.04355777 -0.031472195 0.03575446
0001b0 5e 4f 8c bc 0d 8a 3e 3e f1 8a e3 bc ef a5 08 bc
       -0.017127689 0.1860735 -0.027776213 -0.008340343
0001c0 08 51 5d 3d b6 66 d4 3d 0a b8 3d 3e 9f b5 65 3d
       0.054032356 0.10371153 0.18527237 0.05608141
0001d0 f2 7f ce bc e5 5e d0 bb 83 61 a4 bd ea 4c 40 bc
       -0.025207493 -0.0063589686 -0.080264114 -0.011737088
0001e0 29 93 ac bc 11 40 0b bd 87 b2 c9 3d 42 34 c5 bc
       -0.021066265 -0.033996645 0.098485045 -0.02407277
0001f0 26 93 13 3e 3f 7f 95 bc 62 93 7b 3c 9b ad 60 3d
       0.14411601 -0.018249152 0.015354963 0.054853063

fc2.weight f4 [64, 128]
000000 8b 5b 73 bc 7a 38 06 3d 7b 9f c2 3c de d0 64 bc
       -0.0148533685 0.032768704 0.023757687 -0.013965813
000010 12 f8 2f 3d 9e dc 07 3d 2e 62 05 3d 1e 53 1f 3d
       0.042961188 0.03316938 0.032564335 0.038897626
000020 a3 db 3e bd d2 77 1c bd 18 78 17 3c c5 4f eb 3c
       -0.04659618 -0.038200207 0.009244941 0.02872456
000030 a4 2f 21 bd 70 13 d2 bc f0 f6 94 bc 68 60 aa 3d
       -0.039352074 -0.025644034 -0.018184155 0.08319169
000040 79 ce 15 3b e4 2e 8b bc 5a 5f 83 bd 17 bc ac 3c
       0.0022858663 -0.016990133 -0.06414671 0.021085782
000050 3d 88 89 bd a4 0e 29 3d e2 70 5a 3d 4f 45 03 bd
       -0.067154385 0.041273728 0.05333031 -0.03204852
000060 68 f4 71 bc 4f 83 9f 3c 14 7a 8b bd 7f 19 4e bd
       -0.014767744 0.019471793 -0.06810394 -0.050317284
000070 ff fb 30 3d 63 ba 09 3c fd ef 83 bc e7 a1 93 3d
       0.043209072 0.008406254 -0.016105646 0.07208615
000080 28 25 60 3d bb 62 ad 3d 21 87 81 3d f3 6a 98 bd
       0.054722935 0.08466097 0.06324602 -0.07442274
000090 ae 72 5e 3d 6e d0 68 bd 85 ad 8c 3d c7 69 8b 3d
       0.054308586 -0.0568394 0.06869034 0.06807285
0000a0 ea 3e 22 b9 6c 79 03 bc 15 cf 34 bc 7f 3c 9c 3d
       -0.00015472961 -0.008024555 -0.0110357 0.07628726
0000b0 14 f9 63 bd 5c 27 4d bd 3a b4 99 bd f5 a7 14 bd
       -0.05565746 -0.050086364 -0.075050786 -0.03629299
0000c0 38 f6 df 3a df d1 92 3d aa ce 24 3d 75 d1 cf 3b
       0.0017086929 0.07168936 0.040236153 0.006342108
0000d0 26 74 ef bc d6 c4 a0 3d d9 f8 76 bc e0 2b 1a bc
       -0.029230189 0.078500435 -0.015073978 -0.009409875
0000e0 02 77 8c bd 7f f7 17 bd a4 fa 7e 3d 45 c9 38 3d
       -0.068586364 -0.037101265 0.06225075 0.04511382
0000f0 fc ae af bc e4 1e 98 3b cd 2b 9f 3c a1 03 5f 3d
       -0.021445744 0.0046423543 0.019430066 0.05444682
000100 ee f5 71 3d e1 05 7e 3d 32 51 b2 3d e3 f9 72 bd
       0.059072427 0.062017325 0.08706893 -0.05932034
000110 38 ed 1d bd cc 50 a5 3c 65 8f 05 3c 81 65 5d 3c
       -0.038556308 0.020180129 0.008151864 0.01351297
000120 48 2a b1 bd aa 60 5a bd 76 50 de 3c 8a 7e 3b bd
       -0.08650643 -0.053314842 0.027137976 -0.045774974
000130 9d 75 83 3d d4 83 a7 3d c1 3c 82 bd 0a 94 59 bd
       0.06418917 0.08179441 -0.06359244 -0.053119697
000140 f1 81 3c 3d 9f e9 db bb 53 d4 14 bd da ec e0 3c
       0.04602236 -0.0067111994 -0.0363353 0.02745669
000150 0c 7b 66 3d 24 c1 5f bd 1a 77 80 bd 3f 22 b2 bb
       0.05626969 -0.054627553 -0.06272717 -0.0054362114
000160 af 8f 15 bd 66 35 cd bc 39 cf 7f 3b 99 15 66 bd
       -0.03651398 -0.025049876 0.0039033426 -0.05617294
000170 06 6b b0 3c 28 6f 42 3d 73 65 46 bd 14 94 b4 bc
       0.021535408 0.047469288 -0.048436593 -0.022043265
000180 86 bf 16 3d 43 6e 23 3d 1b 69 5f bd 3c 33 19 bd
       0.036803745 0.039900076 -0.054543596 -0.037402377
000190 e4 5c 86 3d b6 41 21 3c 76 f1 70 bd b4 07 09 bc
       0.06560686 0.009842327 -0.058824025 -0.008363653
0001a0 0e 80 02 3d 30 ba 9b bd 58 92 12 3d d4 8a b6 bd
       0.031860404 -0.07603872 0.035784096 -0.08913198
0001b0 9c 7e b0 3d 01 79 2c 3c 3f d4 9a bd 80 02 a2 3d
       0.08617899 0.010526896 -0.07560014 0.07910633
0001c0 79 5c a4 bd d0 fe 52 bd 94 0d 62 3d 4a af 98 3d
       -0.0802545 -0.05151254 0.05518873 0.07455309
0001d0 f6 9f ac 3d f6 38 8f bd c2 a1 e3 3c a4 d1 3a 3d
       0.08428948 -0.06993286 0.027787093 0.045610085
0001e0 94 a8 8a bd ca 25 95 bd 06 e6 2d bd eb 36 96 3c
       -0.06770435 -0.07282598 -0.042455696 0.018336734
0001f0 45 6c fd bc 38 4f 50 3d a5 0b 1c bd 86 ee 4b bd
       -0.030935416 0.0508568 -0.038097043 -0.04978802
000200 ab 23 d8 3d 45 65 00 bd 44 bc 0c bc 06 2a ff bd
       0.10553678 -0.03134658 -0.008589808 -0.12459187
000210 34 b8 f9 bc 38 37 ac 3c a0 36 62 3d 3b 5a 90 bd
       -0.030483343 0.021022424 0.055227876 -0.0704846
000220 9c 75 d3 bd fd 82 32 3d 6e a3 ca 3c b2 e9 82 3c
       -0.103251666 0.04358195 0.024736132 0.015980575
000230 1e 1a 83 3d de 2c 5b 3c 58 b6 13 3e 41 d0 bf bd
       0.06401466 0.013377396 0.14425027 -0.09365893
000240 4c ee b7 bd 41 ff b6 bd 7e 8f 3b bd 7e 81 51 3d
       -0.089809984 -0.089354046 -0.04579114 0.051148884
000250 c4 4f a2 3d 68 d3 7b 3d c4 d2 5b bd b0 5a 82 3d
       0.0792537 0.06148091 -0.0536678 0.063649535
000260 96 81 a3 3d 96 2c 41 3b d4 33 8c 3d d8 3e 9b 3d
       0.07983701 0.0029476038 0.06845823 0.07580346
000270 f9 66 b7 3d 31 16 17 3d 58 1c 9e 3d e2 f6 07 bd
       0.08955187 0.036886398 0.0772025 -0.03319443
000280 c1 0c 5c bb 1a 80 cb 3d 86 8a bf 3b 74 7f 32 3d
       -0.0033576938 0.09936543 0.0058453707 0.04357858
000290 06 05 3b bd 37 b4 a2 bb 5c 65 38 bd 83 5a 83 bd
       -0.045659088 -0.004965331 -0.04501854 -0.06413748
0002a0 9c 6f 27 bd f8 2a c1 3d ad 9e 12 3c 8a 79 ef 3d
       -0.040877923 0.09432024 0.008948964 0.116931036
0002b0 fb 30 0b bd 3b 5b 65 bc 70 57 aa bb 75 19 53 bd
       -0.03398226 -0.013998802 -0.0051984116 -0.05153795
0002c0 79 2c ed 3d 4d e9 b7 bd e4 70 cf 3d cb 01 d5 3c
       0.11580748 -0.089800455 0.10128954 0.026001832
0002d0 a7 18 f4 3d 65 02 c0 bc 7c 75 c3 bd 58 53 53 3d
       0.119187646 -0.023438642 -0.09543893 0.051593155
0002e0 d5 bd 53 3d d3 e5 d9 3d 59 77 d8 3d f7 44 e9 3d
       0.05169471 0.106395386 0.10569639 0.11390107
0002f0 e1 31 90 3d 8c 24 7c bd 59 69 17 3e 61 02 bf bc
       0.07040764 -0.06155829 0.1478628 -0.023316564
000300 8e 37 51 bd 86 ab 82 bd a1 8b 32 bd 2e ec 44 3d
       -0.05107837 -0.06380372 -0.04359019 0.0480768
000310 2a 86 8c bd 52 20 06 3e b3 6f 4a bd a4 74 7f 3c
       -0.06861527 0.13098267 -0.04942293 0.015591774
000320 a2 d4 90 3d 55 8b 92 bd 29 a5 29 bd 97 b5 b8 bd
       0.070718065 -0.07155482 -0.041417275 -0.090190105
000330 fe 5b e0 3d 8c ce f7 bc 92 e2 f2 3d 9f 42 83 3d
       0.10955046 -0.030249856 0.11859621 0.06409191
000340 a6 e0 af 3c 8f 6b ac bd 81 a3 c3 3d 63 c4 46 bd
       0.021469425 -0.08418953 0.0955267 -0.048527133
000350 87 ee 08 3c ed d9 8c 3c c0 41 89 bd 20 f4 9d 3c
       0.008357651 0.017193759 -0.06701994 0.019281447
000360 3a cb 8b bc c5 47 69 bd 15 76 85 bd 5e 40 6f bc
       -0.01706468 -0.05695321 -0.06516663 -0.014602749
000370 dc 7d 72 bc 4b 62 e7 bd b3 ce f5 3c 91 67 fb bb
       -0.014800515 -0.11298045 0.030005788 -0.007672258
000380 0a 33 08 3e 18 4f 41 bd be 5b 8b 3d 1c 7a 4b bd
       0.1330072 -0.04719457 0.06804608 -0.049677
000390 eb 70 25 bd a1 c6 dc bc 95 33 8e 3d a6 e4 1b 3d
       -0.04039089 -0.026950182 0.06943432 0.038059853
0003a0 b3 d8 c0 3c 97 c4 bf 3d b6 21 63 bd 53 4d 94 3d
       0.02354083 0.093636684 -0.05545207 0.07241311
0003b0 ee 06 b3 3d 07 49 04 3e 80 1b 20 bd 44 94 50 3d
       0.08741556 0.12918483 -0.039088726 0.050922647
0003c0 f7 39 d3 bc 23 21 c5 3d b4 d1 a5 3d 2a c6 9c 3d
       -0.025784476 0.09625461 0.08096638 0.07654984
0003d0 a3 ff 05 be 46 6a fa bc ae 8e 81 bd b6 ef 8f 3d
       -0.13085799 -0.030568253 -0.06326042 0.07028143
0003e0 65 f3 05 bc 7a 58 7a 3d 8e fa ad 3d aa 76 2a 3d
       -0.008175706 0.061119534 0.08495055 0.041617073
0003f0 d7 e6 8d bc b7 31 60 bd 59 21 b3 bc ac 1e c4 bd
       -0.017321987 -0.05473491 -0.021866487 -0.09576163

fc2.bias f4 [64]
000000 87 93 8a bd 3c 37 bd 3d a5 df 8c bd 17 ab 14 3e
       -0.0676642 0.09239051 -0.06878594 0.1451839
000010 eb 47 35 3c 45 e2 7b bd 57 6b 89 bd 33 30 92 3c
       0.01106451 -0.061495084 -0.067099266 0.017845249
000020 c6 4a 9c bc d5 fd af bc 2f cd 36 bd ac c0 2c 3e
       -0.019078624 -0.021483341 -0.044629272 0.16870373
000030 bf 73 d0 bc 6f cb 5a bc a5 bc 18 be e6 7b a0 3d
       -0.025445817 -0.013354166 -0.14915712 0.07836132
000040 2e e1 60 3e c4 4a ac ba 3a 40 c7 3d 54 b0 ac 3c
       0.21960899 -0.001314484 0.09729047 0.021080174
000050 90 2e de bd 80 69 4c bd 1e 09 9c 3e 65 99 f7 3d
       -0.10848725 -0.0499053 0.30475706 0.120898046
000060 5a 42 f2 3c 41 5b c2 3e f1 a3 35 3e ce 35 48 bc
       0.029572655 0.37960246 0.1773832 -0.012219859
000070 33 ed cb bd 0d e3 3e 3e 21 09 3f 3e 58 7c 22 3e
       -0.099573515 0.186413 0.18655826 0.15867746
000080 66 e9 9f 3d b2 85 81 3b 2c 4d 17 bd 14 da 95 3e
       0.07808189 0.0039527053 -0.03693883 0.29267943
000090 f9 1a 6a 3d 1a cb 24 bd 0a e7 31 3d 65 5e 7d bd
       0.05715463 -0.040232755 0.043433227 -0.0618576
0000a0 fb d3 87 bd a3 0b ad 3d a3 61 2d 3e be 8a 0d 3e
       -0.06632229 0.08449485 0.16931777 0.13822457
0000b0 c3 bd b3 3d a7 6e 90 3e 27 85 e9 3d 4a 42 c1 bd
       0.087764286 0.2820942 0.1140235 -0.09436472
0000c0 d5 43 30 3e 92 0a 90 bd 1b 8d 0c bd eb 4d ec 3d
       0.17213376 -0.07033266 -0.034314256 0.11538299
0000d0 09 ef 53 3c cd a7 7d bd 10 2c be bc 09 47 87 3d
       0.012935408 -0.061927605 -0.02321437 0.06605346
0000e0 c4 af c5 3d 0a 5e e5 3d ec 60 25 3e 0c 53 00 bd
       0.09652665 0.11199577 0.16150254 -0.0313292
0000f0 9a 7a 60 bd 8b 14 64 bd 5f 39 17 3e ae 8f 04 3e
       -0.054804422 -0.055683654 0.14767979 0.12945434

fc3.weight f4 [2, 64]
000000 5b c9 af bd c2 97 d5 be 27 6e 65 3c 3c 33 ca be
       -0.085833274 -0.41717345 0.014003313 -0.39492214
000010 84 2e 3f be 99 ce 4b 3e 4f b5 bd 3d c0 5c 20 3b
       -0.18670088 0.1990303 0.092630975 0.0024469346
000020 f2 cb f6 3c 90 06 b1 3d e1 59 76 3e 6c 6e 16 bf
       0.030126546 0.0864383 0.24057724 -0.5876224
000030 b3 fd dc bd 27 61 fb bd 86 69 c6 3d 21 5c da bd
       -0.10790577 -0.1227439 0.09688096 -0.106621034
000040 dd 20 d9 3e 6a a0 21 3c ae 74 53 bd 73 23 ad be
       0.42407885 0.009864906 -0.051624946 -0.33816108
000050 a3 8e df 3c 53 96 81 bc a9 b4 06 3f 02 bd 75 3d
       0.027289694 -0.01581875 0.52619416 0.059994705
000060 ef 83 a3 3b 2f ba 29 3f 2f 6b cf 3e 41 57 d5 bc
       0.004990093 0.6629972 0.40511462 -0.026042582
000070 4f d2 2b 3d 8d 4f e6 be 9c 27 0d bf 80 dc 93 3e
       0.041948613 -0.44982567 -0.55138564 0.28879166
000080 1e 0f 8c be ac 11 00 be 4b 59 eb bd 34 63 14 3f
       -0.27355283 -0.12506741 -0.11491641 0.5796387
000090 3a 80 15 be 8a 42 ab bd ba b7 2d be 9a 14 7b 3d
       -0.14599696 -0.08362301 -0.16964617 0.061298944
0000a0 6f 32 aa bd c0 84 27 be f7 24 e6 be 36 c4 f5 be
       -0.08310401 -0.16359234 -0.44950077 -0.4800126
0000b0 ef 7e 04 3d f2 61 f4 3e b5 3d 36 3e f5 2a 90 bd
       0.032347616 0.47730976 0.17796977 -0.070394434
0000c0 06 28 b1 3e b4 cf d4 bc f0 18 24 3e 8f 17 a9 be
       0.34600848 -0.025977947 0.16025138 -0.33025786
0000d0 a4 e0 45 be 0e 80 3e 3d 9d c8 91 bd cc 08 2d 3e
       -0.19323975 0.04650884 -0.07118342 0.16897887
0000e0 10 9c de be a6 d5 a4 be 0b aa ab be 97 49 6f 3d
       -0.4347844 -0.3219425 -0.3352817 0.05841979
0000f0 f2 03 46 3e aa 6a e8 3d 30 b6 c5 be 5a 96 a1 3d
       0.19337443 0.113484696 -0.3861556 0.078900054
000100 92 9b d8 bc 5f ad 59 3e 2a ec 9c 3b 9b 80 ce 3e
       -0.02644137 0.21257542 0.004788895 0.40332493
000110 9d c3 b6 3c a0 b0 86 bd 67 39 18 3d 81 62 0b be
       0.022310073 -0.06576657 0.03716412 -0.13611795
000120 dc 48 bc 3d 70 06 4c 3b d4 0b 68 be 4e 97 0a 3f
       0.09193584 0.0031131767 -0.22660762 0.5413712
000130 59 fd e4 bd b5 5f 54 3d df d9 22 be ef dc 7e 3e
       -0.11181135 0.051849086 -0.15903424 0.24888967
000140 81 0d ed be 4f 67 e4 3c c8 5a 24 be ad c4 f8 3d
       -0.46299365 0.027881293 -0.16050255 0.12146888
000150 96 be 42 be 50 aa 99 bd bd c1 cc be 9b 2f 6b be
       -0.19018015 -0.07503188 -0.3999156 -0.22967379
000160 de 4a b5 3d 74 86 2c bf 5b 7d f8 be 2c 83 5d 3e
       0.088521704 -0.6739266 -0.4853314 0.2163207
000170 39 d2 4d be 10 c4 0c 3f 57 40 0e 3f b2 43 6b be
       -0.20099725 0.5498667 0.55566925 -0.22975042
000180 e7 e3 4a 3e aa 2b 30 bd 9b a5 1d bd 75 65 d1 be
       0.198135 -0.04301039 -0.03848801 -0.40897718
000190 5f f2 75 3d 4f df bc bd 47 c5 81 3d 48 00 e5 3d
       0.060045596 -0.0922228 0.06336456 0.11181694
0001a0 89 a1 b8 3d 58 40 a2 3e 7f 0e 92 3e 3d 57 f8 3e
       0.090151854 0.31689715 0.28526685 0.48504058
0001b0 2f ed fc bd 61 3b eb be 15 46 15 be bf 63 99 3d
       -0.12349927 -0.4594374 -0.14577515 0.07489728
0001c0 1b f5 ad be 4a fe fb bc 72 b3 01 be 73 67 a6 3e
       -0.33976063 -0.030760903 -0.12666109 0.325008
0001d0 40 39 fa 3d 08 93 61 3d 15 a0 2a 3d e2 45 2e be
       0.12217951 0.05507186 0.041656572 -0.17018846
0001e0 f8 4f e4 3e 06 21 44 3e 70 57 bf 3e 3b 00 b6 3d
       0.4459226 0.19153222 0.37371397 0.08886763
0001f0 f6 a1 48 bd 35 4e 14 bd 2e 04 77 3e 39 67 76 be
       -0.048982583 -0.036207397 0.24122688 -0.24062814

fc3.bias f4 [2]
000000 86 75 65 3e 93 16 e5 be
       0.22408113 -0.44743785
