trained_model_client_1.pt (torch, 657250 bytes, 12 tensors)

conv1.weight f4 [16, 3, 3, 3]
00000000: 38d6 293e 1068 78bb 2fce 0d3e 9d79 30be
00000010: 3e8b bcbd 3711 dd3d bd56 1ebe 0704 a33d
00000020: 77a5 7d3e ada0 ad3e f7d6 81bd 5a50 87bd
00000030: d7dc 783e ba54 9f3d 8cbf 243e b6e3 1f3e
00000040: 84ea 113e fe2b dabd 53ae b43e b852 0cbd
00000050: 853b 853d 46e5 abbe cc8b b8be d712 78bd
00000060: 9e54 99be 2322 a4be 41fa 0b3e 5690 c43e
00000070: b449 123e 7292 e43d cba1 88be c2a9 aa3d
00000080: cd15 9abe 2714 b4be bf9b ca3d 3034 de3d
00000090: a58e 013e a2e2 debd 49b4 99be 5b71 12be
000000a0: 9609 6bbe 1e30 bbbd f250 9fbe e3e3 e5bd
000000b0: 869c 82bd 82d4 d83e 0648 d43c 7fb7 423e
000000c0: 0985 dcbd 4bea bb3d 41e0 dcbd 4a2f 493e
000000d0: 2416 a03e 826d a43e 7773 61bb 1dc8 94be
000000e0: 0bb5 9abd 2556 243c 3af3 54bc 5ed3 b2bc
000000f0: 2894 8bbe 2d76 f4be 9753 8dbe beec ff3e
00000100: 084e ba3e bc61 193f d094 303e 3ef1 073f
00000110: 1b25 b73e a5ba 953e 2231 ab3e ccf1 a73e
00000120: f5ed 05bf d61a 88be 7ba3 6c3e 49b5 0dbf
00000130: cbde 03bf 4f3c 013e 9160 f3be 37e3 85be
00000140: 98dc 093e fa5e 013e f25e 4dbd 25d3 1abe
00000150: 6e17 74be 9d77 3abe cfbb a6bc e07d 97bd
00000160: 191d 87bd 37da 8f3d f9a1 ebbd 3a65 4dbe
00000170: 7b71 b3be 5a08 87be 1215 b0be 5f57 21be
00000180: 069a bfbe d474 e4be 7e3e 99be 146e b23e
00000190: 99d9 893e 5982 8a3c 5995 2e3e d17f 3c3d
000001a0: b000 b53e 3b4b 6e3d 8321 7bbc 5aeb 873e
000001b0: d591 b9be 3331 dabe fa88 57bd 7a30 93be
000001c0: 9683 40bc a09c bcbc 8270 e8bd cfa9 bbbd
000001d0: 97b3 8fbe 13ec 413e b5c1 33b7 bd55 5d3e
000001e0: 2799 9a3e 6f34 f43e 9c64 c03e 8aef ac3e
000001f0: 1428 f63e 2356 2f3e 5cac 72be f632 efbe
00000200: bb95 b4bd 1173 9b3d 6db7 8f3e 5c91 9a3d
00000210: 5313 263d c519 013e 0f88 8c3d 56b7 c73d
00000220: e25c 343e f2c2 bf3e 93b0 253e 41a2 ef3e
00000230: d4da f13e 7c1a a23d 44e4 833e bd87 ae3e
00000240: 1e0e 9bbe 6d69 75bd 31a2 d43d 6f31 96be
00000250: 9da8 1fbe 5f65 d9bb 92c3 5ebd 19f3 d7bd
00000260: 091c 41be 6a0d 743d bef7 13be ebd4 bcbe
00000270: 677d b93d e58b 4dbe c55c e3be 2a7e ddbd
00000280: f069 40be d4c1 6dbe 6f5d 1cbd 49fd 50bc
00000290: de23 03bf 5055 5a3e ca25 30bd fb2d e4be
000002a0: 91e5 ae3e b9fd 0c3f 79f4 203e 0d22 22bd
000002b0: 3648 d0be 74f9 90be a20d 0bbe 3266 0cbe
000002c0: 24c7 08be 290f e0ba ccc5 053f 7026 993e
000002d0: 67b1 be3d 36f0 a0bd 72c9 8ebe e3ae 1c3e
000002e0: 1ca8 4c3e eb19 b9bd 9a91 14be 8f40 9c3e
000002f0: 5d0b 193e 5f99 8f3e 405a 88be eeba 33bd
00000300: 701c ebbe 8da7 68be b03f e53e 34cf 0bbf
00000310: 1895 3c3e ed22 193f 6e4e 7a3e 01c0 90bc
00000320: e35c 413d dd6a 04bf 5cd9 94be b669 f73e
00000330: e341 16bf 04fa 033e d6ef 343f 9cbb 943e
00000340: a9b4 58bd d271 14be 7a7c bfbe a9c8 3cbe
00000350: da45 2d3e e8bf 17bf 2ea3 823e 023e 0c3f
00000360: cc91 8a3e e6cf fa3e 7f90 153f 1bbc 703e
00000370: f188 ec3e 7d3b 013f de5c e53e 79ee 76bd
00000380: 3287 1a3e a164 54bf f86b 35bf 1491 afbe
00000390: bd65 62bf 9ae2 81bf 3bd9 15bf 122b c0be
000003a0: 06f6 84bf 36b8 37bf fe1b 3b3e 7938 c63e
000003b0: 4abb b63e 1d25 b33e 1b81 b23e 78cd e03e
000003c0: 2868 243e 948c 833e 85c7 b13d fbea 843e
000003d0: eadb 3d3e af6b 783e fdf6 2e3e aed4 88bd
000003e0: 6a9e b7bd 9b23 78be 63d1 9ebe e730 69be
000003f0: b941 c43e 9f2b 973e 2d01 e43d f854 26bd
0.16585624 -0.0037903823 0.13848184 -0.17233892 -0.09206246 0.10794299 -0.15462776 0.079597525
0.24770151 0.33911648 -0.063398294 -0.06607123 0.24302994 0.07779832 0.16088694 0.15614209
0.14249617 -0.10652922 0.3528925 -0.034258574 0.06505493 -0.3357336 -0.36044157 -0.060564842
-0.2994737 -0.32057294 0.13669683 0.3839137 0.14285928 0.11160745 -0.26685938 0.0833316
-0.30094758 -0.35171625 0.098929875 0.10849798 0.12652071 -0.108830705 -0.3002036 -0.14301054
-0.22952875 -0.09140037 -0.31116444 -0.112251066 -0.06377511 0.4234963 0.02591325 0.1901531
-0.10767562 0.09175547 -0.107849605 0.19646946 0.31266892 0.32114798 -0.0034401098 -0.29058924
-0.075540625 0.010030304 -0.012997443 -0.021829303 -0.27261472 -0.4774641 -0.27602836 0.49985307
0.36387658 0.59914756 0.17244267 0.5310248 0.35770497 0.2924396 0.33435923 0.32801664
-0.5231622 -0.26582974 0.23109238 -0.55354744 -0.5151183 0.12620662 -0.47534612 -0.26149914
0.13463056 0.12633887 -0.050139375 -0.15119608 -0.23837063 -0.18209691 -0.020353226 -0.073970556
-0.06597347 0.07024043 -0.11505503 -0.20058146 -0.35047516 -0.2637356 -0.34391075 -0.15755986
-0.37422198 -0.44620383 -0.2993049 0.34849608 0.26923826 0.016907858 0.17049159 0.046020333
0.35352087 0.058177214 -0.015327814 0.26546746 -0.36244074 -0.4261566 -0.052620865 -0.28747922
-0.0117501225 -0.023023903 -0.11349584 -0.09163248 -0.28066704 0.18937711 -1.0714332e-05 0.21614738
0.3019497 0.47696254 0.3757676 0.33776504 0.48077452 0.17122702 -0.23698562 -0.46718568
-0.08817621 0.075903066 0.2806963 0.07547256 0.040545773 0.12607487 0.068618886 0.097517654
0.17613557 0.3745342 0.16180639 0.46803477 0.47237265 0.07915208 0.2576009 0.34087935
-0.30284208 -0.059914995 0.10382498 -0.2933459 -0.15591665 -0.006634399 -0.05438573 -0.10544414
-0.18858351 0.059583105 -0.14449975 -0.36881194 0.09057122 -0.20072897 -0.44406715 -0.108150795
-0.18790412 -0.23218471 -0.038175043 -0.0127557 -0.51226604 0.21321607 -0.04300479 -0.4456633
0.3415952 0.5507465 0.15718259 -0.039583255 -0.40680093 -0.28315318 -0.1357942 -0.1371086
-0.13357216 -0.0017094362 0.5225494 0.29912138 0.093111806 -0.078583166 -0.27888066 0.15301089
0.19986004 -0.090381466 -0.14508668 0.30518004 0.14945741 0.280467 -0.26631355 -0.043879442
-0.45920134 -0.22720166 0.44775152 -0.5461304 0.1841625 0.5981892 0.24443981 -0.01766968
0.047207724 -0.5172556 -0.29072082 0.4832284 -0.58694285 0.12888342 0.7067846 0.29049385
-0.052906666 -0.14496544 -0.37399656 -0.18435921 0.16921178 -0.592772 0.2551512 0.54782116
0.2706436 0.4898674 0.5842361 0.23509257 0.46198228 0.50481397 0.44797415 -0.06028602
0.15090635 -0.8296605 -0.7086787 -0.34290373 -0.8843649 -1.0147278 -0.5853459 -0.3753286
-1.038758 -0.7176546 0.18272397 0.3871496 0.35689765 0.34989253 0.34864125 0.4390676
0.16055357 0.2569319 0.086806335 0.25960526 0.18540922 0.24259828 0.17086406 -0.066811904
-0.08965762 -0.24232332 -0.31019124 -0.22772561 0.38331392 0.29525468 0.11133037 -0.040608376

conv1.bias f4 [16]
00000000: 68b3 bfbe 6034 df3e 7597 24bf d80d d8bd
00000010: c2eb 523d 16d7 92be 1593 e83c 5eaf 32be
00000020: 588a ce3e 2073 b6be 66f6 eabe 9ef0 1e3f
00000030: a042 b53d 2eb1 4cbf eb38 8abf 76ca 2abe
-0.37441564 0.43594646 -0.64293605 -0.105495155 0.051494367 -0.28679723 0.028390447 -0.1744971
0.40339923 -0.35634708 -0.45891112 0.620859 0.08850598 -0.79957855 -1.079862 -0.16678795

conv2.weight f4 [32, 16, 3, 3]
00000000: a2bf f6bd 6a6c d9bd c634 04be 0b04 d4bd
00000010: 1368 973c c79d 113d 5425 323d 2638 78bd
00000020: 5345 8d3d 01a9 383d 9f1e 5f3e 8818 253e
00000030: 7ce0 99bd 284a 8d3d 73e8 99bd 6a0f 2e3e
00000040: 8bb1 8e3d 0702 bb3c 1ed6 7cbd 0c24 edbe
00000050: 9480 a5be 3fcc 91bc c275 abbd d5f1 86bd
00000060: c6ac 0abe d246 ccbd 6407 15bd ad3d 0cbd
00000070: 788d f7bd 5bcf cfbd b848 0bbe be36 efbd
00000080: 1737 a6bd 3c0d 993d 8823 663d 33fc c0bd
00000090: 026c 42be fe32 a23c 0b50 bebd b654 5e3e
000000a0: 3a83 89bd 188f 29be 4235 a3bc 8154 af3d
000000b0: bcc6 913c 4aa8 93be b18e 29be f761 95be
000000c0: f121 aebe 1b07 28be c21a 89be 8bfa 6cbe
000000d0: cfde 20be 50d3 ac3b 045c 2bbc cde1 6b3e
000000e0: 37b2 173e b06b b2bd 0918 4dbe 99c5 07be
000000f0: c87a 133e ac0f d1bd 9882 1cbd efbb 993e
00000100: a1c4 c23e 165a 173e 0bc6 f63c 8f99 ab3c
00000110: 2ad9 853d 3865 2e3e 54c2 3dbe 3253 593d
00000120: 4c16 303d f75c 30be bf80 d9bc 8650 73be
00000130: ab3c 85be 9f13 70be 0e3d 4abd bd4e 9f3d
00000140: 7628 233d 31f7 c93d bd55 8c3c 11a4 a7bd
00000150: 816c 28bd f567 4a3d 3a59 10bd 3ed6 f13d
00000160: e52b 493c 6f81 173d 31ec 50be 2f35 4e3e
00000170: 19b8 b63e df07 583d bd63 35bd e04c 933e
00000180: 6126 483e 1ca6 18be f158 cdbb b2c9 1a3e
00000190: c4d7 fd3b 058c 38bc ceba fb3d bcaf 9b3d
000001a0: bfe7 edba 6001 783e 284b 483e 4a2b 773c
000001b0: c805 2ebe 6112 ce3d 39f5 32be f6e3 0ebe
000001c0: 095a f4bd 71e8 dcbd 07fd 853c 2ce8 cbbc
000001d0: e45d 71bb 15be 7d3e 26d4 a13e 3cfc 263e
000001e0: 812a fabd de83 09be f358 003d ff9a 5b3e
000001f0: e562 b23d 513e 8fbd 3a89 823d 0edb d03d
00000200: 3a53 1a3e 471e 51be 5d64 36bb 4f3d ad3d
00000210: 1979 37be 07e4 62bd c582 54bd d8cf d83c
00000220: 4685 523e 3327 c53d e0db 05be 81e3 3cbe
00000230: 3b3a 28be de4d 21bc 3aad 85bc 0713 78be
00000240: 1dcd 4dbe deb8 54bd 0008 21bc da5f 68bd
00000250: 6305 84bb 11d5 543e db21 e8bd 097b 153e
00000260: 1675 233e 2718 b53b 197d 55be 348a 08be
00000270: fd75 43bd bf7c 5b3d a2a9 4bbd 0a5b dc3d
00000280: f6cf dd3d 4840 a43d ced1 b3be 8d35 dcbc
00000290: c826 a73d 40cb e7bd 903f 3dbd 26ed ad3e
000002a0: 6939 1fbd 94d1 bb3d 75cf 533e 301c 3fbd
000002b0: 7714 29bd a725 bdbd 2d2f bbbd 1064 93bd
000002c0: ef4e 48bd ed17 7f3c b251 d13d cef1 d43d
000002d0: 7912 9abb f0f9 d73d db0d a3bc 1d37 903a
000002e0: bf65 c63d 1c34 543d cf9f 7a3d 3938 12be
000002f0: 3141 37bd ae2c bdbd 7f61 27be 434c c83d
00000300: bcb4 f93c f3bd f7bd e902 133e 3405 933d
00000310: 0ad6 013e 5ac9 353e c1a3 8e3e 04ed d2bc
00000320: 0466 babd 14fa 273e e54e bbbd 66e8 353d
00000330: 0945 b63d 7d13 173e 3ec4 043e ed70 e8bd
00000340: 7913 b73d 2e42 cd3c e6cc 913e 6126 f3bd
00000350: 50cb 013e 2af1 6a3e f60b 8e3e 34f0 7b3e
00000360: 0845 02be ca32 bdbd 3a84 6abd cbda fdbc
00000370: acf3 13be 8d17 193d a610 dcbc 4bc4 0dbe
00000380: 8c12 b5ba ca3d 97bd 2ee7 97bd a0eb d0bd
00000390: ba0e 393d d542 05bd 77a8 203e ecec 03be
000003a0: d6de 063e 7a6a b03d 1d8b 393e b28d e2bd
000003b0: aeb7 23be 46e2 95bd 1f8e 843d 436a 86bd
000003c0: e13f 703d 4c7a b43e 54df bebd e215 48be
000003d0: 1edf 73be db8a 11be b2a5 543d d2e7 b6bd
000003e0: f55e 08bd 38ed 573d a375 3abd d1e1 353d
000003f0: 4c26 d9bd 37b9 8abe d3a2 99be fcdb 7abd
-0.1204827 -0.106163815 -0.12910756 -0.10352334 0.018482244 0.03555086 0.04349263 -0.060600422
0.06897988 0.04508305 0.21789025 0.16122639 -0.0751352 0.0689891 -0.07515039 0.16998067
0.069674574 0.022828115 -0.061727636 -0.46316564 -0.3232466 -0.017797587 -0.0837207 -0.065890945
-0.1354247 -0.099744454 -0.036384 -0.034238506 -0.1208753 -0.10146972 -0.13601959 -0.11680363
-0.08115976 0.074732274 0.05618623 -0.09423103 -0.18986514 0.019799706 -0.09292611 0.21712002
-0.067144826 -0.16558492 -0.019922856 0.0856104 0.01779496 -0.28839332 -0.16558339 -0.29176304
-0.3401027 -0.1640896 -0.26778227 -0.2314245 -0.15709995 0.005274214 -0.01045895 0.23035355
0.14814077 -0.08711946 -0.200287 -0.13258971 0.14402306 -0.10208067 -0.03821048 0.30026194
0.3804064 0.14780459 0.030123731 0.020947246 0.065355614 0.170308 -0.18531162 0.053057857
0.042990014 -0.17222963 -0.026550649 -0.23761186 -0.26022848 -0.23444985 -0.049374633 0.0777869
0.03983351 0.09861601 0.017130727 -0.0818559 -0.041119102 0.049415547 -0.035241343 0.118084416
0.012278532 0.036988672 -0.204026 0.20137475 0.3568733 0.05274188 -0.04428457 0.28769588
0.1954589 -0.14907116 -0.006266706 0.15116003 0.0077466685 -0.011263852 0.122914895 0.07601878
-0.0018150731 0.24219275 0.1955992 0.0150860045 -0.16994393 0.10062099 -0.17476358 -0.13954148
-0.11931235 -0.10786522 0.016356004 -0.024890982 -0.0036829645 0.24779542 0.3160717 0.16307157
-0.12215138 -0.1342921 0.03133483 0.21445845 0.08710269 -0.06994308 0.0637383 0.10198031
0.15070811 -0.20421706 -0.0027830817 0.08458959 -0.17917289 -0.055393245 -0.051882524 0.026466295
0.20558652 0.09626617 -0.13072157 -0.18446161 -0.16428463 -0.009845225 -0.016317952 -0.24226008
-0.20097776 -0.051934116 -0.0098285675 -0.056732036 -0.0040289625 0.20784403 -0.113345824 0.14597715
0.15962633 0.005526561 -0.20848502 -0.1333397 -0.047719944 0.053585764 -0.04972232 0.10759552
0.10830681 0.08020073 -0.35121006 -0.026881004 0.08161694 -0.11318064 -0.046203196 0.33969992
-0.03887311 0.09170833 0.20684607 -0.04665774 -0.041279282 -0.09235697 -0.091398574 -0.0719682
-0.048903402 0.015569669 0.1022066 0.10397683 -0.004701909 0.10545719 -0.019904068 0.0011002753
0.09687375 0.051807508 0.06118756 -0.1427926 -0.044739906 -0.092370376 -0.16345786 0.09780171
0.030481689 -0.12096777 0.14356579 0.07178727 0.12679306 0.17752591 0.2785931 -0.025747783
-0.09101489 0.16403991 -0.09145907 0.044411086 0.08899886 0.14753528 0.12965485 -0.11349664
0.08939261 0.025055971 0.28476638 -0.118725546 0.12675214 0.2294356 0.277435 0.24603349
-0.12721646 -0.09238203 -0.057255007 -0.030988118 -0.14448422 0.037375975 -0.026863407 -0.13844411
-0.0013814732 -0.07384832 -0.07417141 -0.10201192 0.04518006 -0.03253444 0.15689264 -0.12883347
0.13170943 0.08614059 0.18119474 -0.110621825 -0.15988037 -0.07318549 0.0647242 -0.065632366
0.05865467 0.35249555 -0.0931994 -0.19539598 -0.23815581 -0.14213125 0.051915832 -0.08930935
-0.033293683 0.052716464 -0.045522343 0.04440481 -0.10603008 -0.27094433 -0.30007038 -0.06124495

conv2.bias f4 [32]
00000000: 4091 24be e6dd 2cbd c1b2 02bd 112c bc3c
00000010: ed7a cfbe 2eaa 98be 3261 2a3e 82eb 60be
00000020: 17b0 4dbd 68a4 8c3c 3b15 f13e 7a8e 933e
00000030: 646b 883e c68c 88be 8a3a 3cbe e0e7 d9be
00000040: e1e2 66be 0ea9 dfbe b778 d03d e994 24bf
00000050: 3fc0 5fbd ccae 41be 760d b9bd c24e 21be
00000060: 9d90 453d 1255 43be 4d04 2bbf 025b 08be
00000070: 9549 88be 0659 b5be f97b 343e 884c 05bf
-0.16071033 -0.042203806 -0.031908754 0.022970231 -0.40523472 -0.29817337 0.1663864 -0.21964839
-0.05021676 0.017168239 0.4708651 0.28819638 0.26644433 -0.26669902 -0.18381706 -0.4255972
-0.22547485 -0.43683666 0.101792745 -0.6428972 -0.0546267 -0.18914336 -0.090357706 -0.157527
0.048233617 -0.1907542 -0.6680344 -0.13315967 -0.2661864 -0.35419482 0.17625417 -0.520699

conv3.weight f4 [64, 32, 3, 3]
00000000: 17cd 4c3e fccc c53d 1db2 eaba 504e e93b
00000010: 51b7 1ebe 6ee2 a8bd 5c74 2fbe 58bb 1abe
00000020: 8abf f7bd 3c4c 543e 48c7 ae3d 45fb e93c
00000030: 6df3 c5bd b7f8 12be cbbf a8bd 603b 0bbe
00000040: 82bf eeba bf4b f83b 7dee 693e de60 34bd
00000050: 6eaf fcbb bc2d 503e ee51 323d 067c 82bd
00000060: ba4f 7abd 094a de3d 4658 9f39 2bcf 8abd
00000070: ec20 6abd bfca 02be 3f68 703d 1e0a bf3c
00000080: b1af f2bb e595 bdbd b8d9 fb3d 1092 c53d
00000090: f555 2dbe bc9a 363d a4c7 d4bc 06ed 9bbd
000000a0: 39ee b23d b736 88bd b532 b43d f116 3e3e
000000b0: 3bff 11bd 83e2 bbbc 5708 693d 4c3c b93c
000000c0: e7f2 bdbd 1b01 b5bd af72 b3bd 9c95 c73d
000000d0: 6b1f da3d 57a6 06bd b6c8 33be 0bf6 3cbc
000000e0: b85a 623d ab33 39bd 6c73 b03c c25c 56bd
000000f0: 474c aebd 316e 423d 9bb8 0e3d c2bd 7abd
00000100: fdc2 543d 1fd0 1bbd ec8f 49bc 1a16 b9bd
00000110: c1b4 e63c c8da ff3d 9dcb eb3c 66b8 f2bd
00000120: c868 033d 574f 123d dfe6 91bc 3000 21bd
00000130: 5df9 623c b54a ecbc d427 ac3d c59c 893d
00000140: c11e 3ebc 6e63 d73c 5e84 913d 4618 ddbd
00000150: dd8c 3dbc cb1d ed3c bf80 42bc 2445 e23d
00000160: fc31 8c3b 43eb 253b bcc1 b5bd 1edb 8b3c
00000170: 531a a3bc 845d c0bd ae34 0dbd 5ebb 4ebd
00000180: e878 debd b278 5abd ff48 d9bd 8747 aaba
00000190: 53f0 4fbd de76 c2bd 3f36 533c 1494 41bd
000001a0: 50ad 62bd fccf 0f3e fc5f f43d a988 3cbc
000001b0: 5481 5cbd 5e1b 103c 8b6a 283d 047c 00bd
000001c0: da03 803a 01f7 f5bb c099 02bd 390f 08ba
000001d0: 3c60 4a3e fe13 f2bc a23f 0a3e fdb3 dc3d
000001e0: 80af 92bd 93a0 bd3d d554 883b 4961 7f3c
000001f0: b704 663d 63e1 663d 6885 9cbd 7611 0abd
00000200: 1f56 47bd 3dff a13a b805 27bd 86d9 bb3c
00000210: 1ea1 02bd c66d 1f3d 8ab4 813d 5a71 403d
00000220: 0b8c 9dbd 1b40 67bc e47e aebd e44f c3bd
00000230: b692 6a3d 7aa4 b2bc d480 8f3d 31bc 87bb
00000240: 2ec4 ce3d 7f36 993d fc9c 6139 7b93 8b3a
00000250: 5bc4 cebd bf65 98bd 7cb9 c9bd 4951 80bc
00000260: b652 d3bd e161 eb3d 35ef d93c a5db 3c3c
00000270: 6d81 c93d caea a7bd 30d6 98bd 1f33 56bd
00000280: 9875 c03c 99f3 6cba 15fb 8cbd cf18 3d3d
00000290: 7282 edbc fc69 17bd 45cd 823c 8e59 83bd
000002a0: 1107 78bd ca18 033e 1224 19bd 7be3 1d3e
000002b0: 7277 183d 5100 0c3d 7481 6dbd 0e26 b3bd
000002c0: 41b3 bdbd 6eb3 71bc dccf 3dbd 1d47 bc3c
000002d0: adc6 75bd f726 8f3d 29df 0c3d ee5a 2abe
000002e0: bd86 3fbd d0b0 b339 dc6e f7bd fc4e 1c3d
000002f0: 160a 1d3e 8ac0 8c3c b7f7 eb3d 3fc2 95bd
00000300: ba9f bcbb 7950 583c 2e7b 92bd 0fad f83d
00000310: 2a50 6e3d ad1b 01bd 16ef 7abc 5580 933d
00000320: 9df0 dbbb 3358 213d 0cbb e93d 2bdf c2bd
00000330: d183 aabc 7a38 15b9 bff9 5a3d 8cce f63d
00000340: d99b 7e3d 09e3 af3d 0526 10be c709 37be
00000350: 2638 02be c226 57bd 4509 b93c 395b 593d
00000360: 4d80 c8bb 720a d3bc e7ba 0ebd ddfc a93d
00000370: 396a 983c 538a e9bc 6e86 153e 5566 ad3d
00000380: c616 40bd 5220 dabd 7a42 e63b f74b ac3d
00000390: df10 6dbd 7078 dcbd 12c7 0e3c 0aa9 18bd
000003a0: ded4 d0bd afe3 49bd 1086 22bd a479 8dbd
000003b0: cedc c3bc 40bb 79bd b6dc 1abd e4aa 60bd
000003c0: cded 8bbd d31c dc3d 988e 543d 6166 16be
000003d0: 5624 2fbe b5ec 66be 123d e8bd 2387 fdbd
000003e0: 8c54 c1bd 0dba f13b 9fe9 92bc 277a 553c
000003f0: cb06 7ebd 9336 e8bc e45f 22bc 1aa6 a0bd
0.2000011 0.09658238 -0.0017905865 0.0071199313 -0.15499617 -0.08246313 -0.17134231 -0.15110528
-0.1209708 0.20732206 0.08534104 0.028562197 -0.096655704 -0.1435269 -0.082397066 -0.13596869
-0.0018215033 0.007577389 0.22844882 -0.044037692 -0.0077113425 0.20329946 0.043535165 -0.06371312
-0.06111119 0.10853965 0.00030392612 -0.067777954 -0.057160303 -0.12772654 0.058693167 0.023320254
-0.007406198 -0.09257106 0.12297386 0.09647 -0.16927321 0.04458116 -0.025974102 -0.07613568
0.087368436 -0.06651061 0.08798734 0.18563439 -0.035643797 -0.022935158 0.05689272 0.02261176
-0.092748456 -0.088381015 -0.087621085 0.097453326 0.10650524 -0.032873478 -0.17557034 -0.011533271
0.055262297 -0.04521529 0.021539412 -0.052334554 -0.085106425 0.047468368 0.034844022 -0.061216123
0.051943768 -0.038040277 -0.01230238 -0.09037419 0.028162362 0.12492901 0.028783614 -0.118515775
0.03208235 0.035720196 -0.017810283 -0.03930682 0.013853398 -0.028844217 0.08406034 0.067193545
-0.011604012 0.026292529 0.07105325 -0.107956454 -0.011569229 0.02894487 -0.011871516 0.11048344
0.0042784195 0.002531723 -0.088748425 0.017072257 -0.019910013 -0.09392837 -0.034474067 -0.050471656
-0.10862905 -0.05333776 -0.10609626 -0.0012991288 -0.0507663 -0.09495328 0.012891351 -0.04726036
-0.055341065 0.14044183 0.1193237 -0.011507192 -0.053834274 0.008795587 0.041117232 -0.03136827
0.0009766773 -0.007506252 -0.03188491 -0.00051902566 0.19763273 -0.029550549 0.13500836 0.107765175
-0.0716238 0.09259143 0.0041605034 0.015587159 0.05615684 0.05636729 -0.07642633 -0.03370806
-0.048666116 0.0012359392 -0.04077694 0.022930872 -0.031891935 0.038923047 0.06333263 0.0469831
-0.07692727 -0.014114405 -0.08520296 -0.09536722 0.05726882 -0.021806944 0.07006994 -0.004142307
0.10096012 0.074810974 0.00021516153 0.0010648811 -0.100960456 -0.074412815 -0.098498315 -0.01566376
-0.1031851 0.11493278 0.02660332 0.011526977 0.09839139 -0.08199079 -0.07462728 -0.052294847
0.023493573 -0.00090389844 -0.068838276 0.046166237 -0.028992865 -0.03696631 0.01596702 -0.064135656
-0.060553614 0.12802425 -0.037387915 0.15418808 0.037223287 0.03417999 -0.057984784 -0.08747493
-0.092627056 -0.014752252 -0.04634081 0.022983128 -0.060003925 0.06989854 0.03439251 -0.1663625
-0.046759356 0.00034273276 -0.120816916 0.038161263 0.15335879 0.017181654 0.11521857 -0.0731244
-0.0057563456 0.01320278 -0.07152401 0.12142383 0.05818192 -0.031520534 -0.015315792 0.07202212
-0.006712033 0.039390754 0.114126295 -0.09515222 -0.020814808 -0.00014230786 0.053460833 0.120511144
0.062160347 0.085882254 -0.14077003 -0.17874824 -0.12716731 -0.052527197 0.022587428 0.053065512
-0.0061188103 -0.025761817 -0.034846213 0.08300183 0.018605338 -0.028508341 0.14602062 0.08466784
-0.04689672 -0.10650696 0.0070269676 0.08412927 -0.057877418 -0.10765159 0.008714454 -0.037270583
-0.10196851 -0.0492894 -0.039678633 -0.06907967 -0.023908999 -0.06096959 -0.037808143 -0.054850474
-0.06832466 0.10747685 0.0518938 -0.14687492 -0.17103705 -0.22551234 -0.11339773 -0.12379291
-0.09439954 0.0073769153 -0.017933665 0.013029612 -0.062018197 -0.028346336 -0.009910557 -0.07844181

conv3.bias f4 [64]
00000000: 0250 c3be 1da2 83be b3df 8e3d aa57 82be
00000010: e647 643e 7df4 97be 8fd7 1abe b798 c3be
00000020: 50d4 bbbd 8330 81bc b3e6 b2bd 3dd3 dbbc
00000030: d1aa 9cbe f39c 93bc c5af 6dbd ad79 c9be
00000040: ed30 a23d 66a5 78be 88c5 9dbe 24e0 36be
00000050: 91f7 3f3e 7036 48be 677b 953c 2bda 99bc
00000060: d6aa 48be 1257 ddbd dc4d 823e 95fa 47bc
00000070: 047b d6bd 021c 4bbd fe68 53be e507 4abd
00000080: 963d 02be d989 99be af9d 963e 317b 303d
00000090: a2c4 86be e14f e5be 48c7 00bf 587d 72be
000000a0: e303 a4bd ac0a 47be cd52 aebd cc4f 07bf
000000b0: 34be ad3c 87c6 383c edbb 09be ce1a 21be
000000c0: 8a54 13be 1daf acbd a5fb 26be 8f0f b3be
000000d0: e0ea 98bd 6dc6 f0bd 8ac5 dabe 2542 aabe
000000e0: 1fa1 c8bd 14b5 163e df26 0c3d f1c4 9ebe
000000f0: 7f3b 843d bc0e 85be 0b80 4abd 7e74 38bd
-0.3814698 -0.2570962 0.06976261 -0.25457507 0.22293052 -0.29678717 -0.15121292 -0.3820245
-0.09171355 -0.015770203 -0.08735409 -0.026834125 -0.30599073 -0.018019175 -0.058028955 -0.39350644
0.07919488 -0.24281844 -0.30814767 -0.1785894 0.18746783 -0.19552016 0.01824732 -0.018780788
-0.19596419 -0.10807623 0.25450027 -0.0122057395 -0.10472682 -0.049587257 -0.2064552 -0.049323935
-0.12718806 -0.29987982 0.29417178 0.043086234 -0.26321894 -0.44787505 -0.5030408 -0.23680627
-0.08008554 -0.19437665 -0.08511887 -0.52856135 0.02120886 0.011277801 -0.13450594 -0.15732881
-0.14387718 -0.08431838 -0.16306932 -0.34972808 -0.07466674 -0.11756597 -0.42728835 -0.3325359
-0.097963564 0.14717513 0.034216758 -0.3100963 0.064566605 -0.25987804 -0.049438518 -0.04503297

fc1.weight f4 [128, 1024]
00000000: f358 0d3c 2ce3 1539 0f13 253d 379c 623d
00000010: 5c25 21bc 7860 51b9 b226 22bd f999 3b3d
00000020: f495 dcbc 9df5 31ba 52e8 3fbc 80fe 21bd
00000030: 37e5 9ebc dfa8 683c e1ab a6bc 87cc 75bd
00000040: 20eb 83bc 19ce 993c dfe5 953a 54e7 43bd
00000050: 1ed9 0ebd 3c98 5e3a e9c1 103c eb45 68bc
00000060: 27c5 96bb fdc4 47bc 00b6 003d 408f 8c3a
00000070: c978 0f3d a475 d0bb c88c 813c bff1 7e3b
00000080: bcd7 023d dbae 81bc 1724 a43c 5693 aa3c
00000090: 245d 47bd 2bb3 d3bc bfc4 54bc 28f2 07bd
000000a0: ae07 223c 01b7 a9bc 0ea2 17bc 8ec4 fabc
000000b0: ddf6 07bc 805f 36bc a066 2a3d 63bf 463c
000000c0: ecbb 0cbc 23a5 043c 03ed 193d 1529 02bb
000000d0: 42ed 3dbb 8462 193c b2dd 5cbb bf3e 70bd
000000e0: d7b8 0f3d 465f 0e3d 7903 263c 8597 323b
000000f0: 6420 083d c7d8 a4bb 8b1a 58bc b999 94bb
00000100: 88ae 66bd 90c6 87bc bca0 1fbc 19e4 0dbd
00000110: afb9 11bc b037 d9bc 96f1 fdbc 0578 2fbc
00000120: 8bd2 f5bc d237 d03c 7455 cbbb 5523 81bc
00000130: 60d6 c7bc fdb9 c03c 0960 8a3b b9ae 433d
00000140: 8c12 33bd a7e7 48bd 047f 3cbd e803 97bc
00000150: efda b5bc bdf3 99bc d9ff a3bb 7dc6 aa3c
00000160: c7a2 05bc bae2 323c b83e 743c 97c2 673d
00000170: 0f41 cf3c 678a 69bb da65 003d d6e0 7c3c
00000180: 8ad1 213c f0de c4ba df17 fd3c 1e06 a3bc
00000190: 60b7 a93c aac1 b2ba ff46 b1bc c78e 493d
000001a0: 09cd 0cbc d815 a9ba 0843 973c 1777 42bd
000001b0: fea2 babc 93e6 a33b 5f74 e5b9 fc94 5ebd
000001c0: b2fd 1d3c ae3e 233d 3e57 adbc 13f6 f4bb
000001d0: 36f7 0f3c bdb3 1dbd a5e3 32bd ac62 41bd
000001e0: 681a 94bc a3f8 1fbd 7676 52bc 607b 63bc
000001f0: d790 afbb ba36 833a a3bd 0c3c 1b0e b03c
00000200: 516c 72bc b22a ca3c 4893 113b 9d1a 7e3a
00000210: 7480 b63c f781 2bbb 5ac3 2fbd a7ac 5cbc
00000220: bce0 993b 41cc d2bc e287 d2bb cbcd 3fbd
00000230: f552 c63c 6d5f 02bc 9cc6 d939 6565 51bc
00000240: 396f 0cbb d921 3cbc 2d93 053d 9d75 12bd
00000250: 1407 2ebd c210 143a 1794 61bd 8231 18bd
00000260: a526 f9bc 2c2d 98b8 7765 113d cc98 d3bb
00000270: 50a3 a4bc e442 c83c 6913 333d 16d2 b83b
00000280: 4d6d a039 169f f5bb f443 2e39 479c d9bc
00000290: 22df 593d 1714 71bc 3da5 71bd 3097 fa3b
000002a0: 677a 333d 7321 c4bc d23f 7e3c 6983 03bd
000002b0: 5bc9 4b3c 6b5e 3cbc 4092 1cbd ad88 0b3d
000002c0: 2382 223d 7fa7 ba3c b368 a5bb 5008 b1bc
000002d0: 2642 2d3d 7773 ccbc 30c7 7c3c ce25 d73b
000002e0: 475c c1bc ba52 23bc d741 2e3d c325 cdbc
000002f0: 9cb4 77bc f3f0 bebb 35c0 7d3b b010 0e3d
00000300: 1725 42bd 505d e0bc 9134 023d 604e b43c
00000310: caa2 d0bc 4277 893c b77e a63c c15f 453b
00000320: 8682 abba 4d5a d23b 1076 76bb c3d9 c5bc
00000330: d780 6a3c 6565 b43c f8f1 a83c acaf c33b
00000340: 15c6 60bc d7c0 6f3b 2e3d bd3a 05f7 25bc
00000350: 3cad 223d 508a 9bbb eb46 733b 2126 c53c
00000360: 9476 db3c 6e79 cfbc eb96 9dbb 5cba 91bc
00000370: f01d 373d 6947 5fbc fd32 013c 01ef 6d3d
00000380: dee0 18bd d449 a8bc ce83 4abc c850 2abd
00000390: c23f 303d c603 053d 4471 e8bc cb5d 7dbd
000003a0: 9216 b23c 8661 72bc 4f35 1a3b 7e9e 0fbb
000003b0: 12db 093d a713 d03b 8e97 993c 2774 813c
000003c0: 41ff 51bc 1565 663d fc41 2e3d 88fe f8bc
000003d0: 6377 1b3d c5a4 84bd 6233 84bc 5ea0 503d
000003e0: 4bac 20bc 5b74 03bd 97df 43bd eb54 38bd
000003f0: 3d61 323d 9f57 dc3c 62dc 05bd af68 51bd
0.008627164 0.00014294375 0.04030138 0.05532476 -0.009835567 -0.0001996773 -0.039587684 0.045801137
-0.026926972 -0.00067886134 -0.011713104 -0.03954935 -0.019396408 0.014200418 -0.02034563 -0.060009506
-0.016103327 0.018775033 0.0011436305 -0.047828034 -0.034875028 0.00084913126 0.008835294 -0.014176826
-0.004601139 -0.012192962 0.03142357 0.0010723844 0.0350273 -0.00636168 0.0158142 0.0038901416
0.03194402 -0.015830448 0.02003674 0.020822208 -0.04867281 -0.02584227 -0.012986361 -0.033189923
0.009889526 -0.020717146 -0.009254945 -0.030611303 -0.008298603 -0.011131167 0.041601777 0.012130591
-0.008589726 0.008096012 0.037579548 -0.0019860913 -0.0028980528 0.009361867 -0.0033701477 -0.05865359
0.035088386 0.03475883 0.010132664 0.0027250957 0.033234015 -0.0050307247 -0.013189922 -0.0045349267
-0.05631879 -0.016574174 -0.009742912 -0.03464136 -0.008894368 -0.026515812 -0.030998986 -0.010709767
-0.030007621 0.025417242 -0.006205255 -0.015763918 -0.024394214 0.023526186 0.004222874 0.04777405
-0.04371886 -0.049049046 -0.04601957 -0.01843448 -0.022199122 -0.018792981 -0.0050048647 0.0208466
-0.008156485 0.010918314 0.014907531 0.05658206 0.025299577 -0.0035635473 0.031347133 0.015434464
0.009876618 -0.0015020054 0.030895172 -0.019900378 0.020717323 -0.0013638039 -0.021640299 0.04920843
-0.008593806 -0.0012900187 0.01846458 -0.047476854 -0.022782799 0.005001852 -0.00043764987 -0.0543413
0.009643005 0.039854698 -0.021159764 -0.0074756234 0.008786967 -0.03850149 -0.04367413 -0.04721324
-0.018078998 -0.039055478 -0.012845626 -0.013884395 -0.0053578424 0.0010010817 0.008590135 0.021491101
-0.014796332 0.024678562 0.002221303 0.0009693297 0.022278048 -0.0026169994 -0.04291091 -0.013468898
0.00469598 -0.025732161 -0.00642489 -0.04682712 0.024209479 -0.007957322 0.0004153744 -0.012780522
-0.0021428599 -0.011482679 0.03261106 -0.035756696 -0.04248722 0.0005648249 -0.05507287 -0.03715659
-0.030413935 -7.256339e-05 0.035497155 -0.006457424 -0.020097405 0.024445958 0.043719683 0.0056402786
0.00030599014 -0.007495771 0.00016619248 -0.026563777 0.05319131 -0.014714262 -0.058995474 0.0076474175
0.043817904 -0.023941731 0.015518146 -0.032107744 0.012438144 -0.01149712 -0.038225412 0.03406589
0.03967489 0.022784946 -0.0050478815 -0.021610409 0.042299412 -0.024957402 0.015428349 0.006565786
-0.023603572 -0.009968454 0.04254326 -0.02504242 -0.015118744 -0.005827063 0.00387193 0.034683883
-0.047398653 -0.027388245 0.031788412 0.022010028 -0.025468249 0.0167805 0.020324094 0.0030116888
-0.0013085164 0.006419456 -0.0037606992 -0.024151688 0.014312944 0.022021005 0.020623192 0.0059718695
-0.013719101 0.0036583447 0.0014437789 -0.010129695 0.03971599 -0.0047467127 0.0037121128 0.024066033
0.02678994 -0.025326457 -0.0048092506 -0.017789058 0.044706285 -0.013627865 0.007885692 0.05808926
-0.037323825 -0.020543016 -0.012360526 -0.041580945 0.043029554 0.0324743 -0.028374322 -0.061857026
0.021739278 -0.014793759 0.002353031 -0.0021914537 0.033656187 0.006349999 0.018749025 0.015802456
-0.012817205 0.056248743 0.042543396 -0.030394807 0.037955653 -0.0647674 -0.016137782 0.050934188
-0.009806703 -0.032093387 -0.047820654 -0.04500286 0.043549765 0.02689725 -0.032680877 -0.051125225

fc1.bias f4 [128]
00000000: b344 9f3c 9a35 583e b44d 67bd 9470 a83d
00000010: d85f 293c 59ec 5cbd bc8f 41bc 2fdf e93d
00000020: f51b c1ba fdfc edbb a057 c23d 3e96 2e3d
00000030: 27b9 7eb9 bde4 993d a141 2c3e b541 f23c
00000040: b523 19bc d9ee 85bd 34e3 f43b cd9a 163d
00000050: ffcc 5a3d 57dd 933c c92b d63d fa06 f0ba
00000060: e9b0 ae3d d517 d53d 5163 723d 782e 743c
00000070: 088a 233e 68cf 0cbd 5e1a 993d 60bc 1dbc
00000080: 6ddc 123d fba4 223d 80f2 8c3d 84fd dd3d
00000090: 800a f43d 3b0f c1bc 5636 34bd 6997 f83c
000000a0: 1491 02bd 8ed6 f9bb 984b f7ba cc3a a7bc
000000b0: 65ec 1ebd ffe2 f53c 1f9b e03c 1503 74bb
000000c0: 84fc 31bc 5f0b 983d 7d84 d73c 4eb7 b43c
000000d0: d09d a7bd d4a7 9d3d 988f f3bb 627a 293d
000000e0: 39c6 c93d b7c0 373c b269 863d 698b a53d
000000f0: aa7b 5ebc fbfa 16be 7d47 6d3e 256a 73bc
00000100: a5fe 533d b9bb 2d3d 977d dfbb 8283 dbbc
00000110: 6d92 d43c 22c3 d63b bc0e 973d fdba 96bc
00000120: b35c cfbc a289 8cbd 023e a53d a9b3 e2bd
00000130: da17 d43d 6cc1 33bd 9d3f 383e be83 ea3d
00000140: d37b 643d 0118 4b3c 146a 783b ceb2 043c
00000150: 72d2 733d 8baf 013c f446 10bd f286 65bb
00000160: 299d 113e b2f1 79ba cce3 41bc faab dd3a
00000170: 41dd 9bbc e362 1f3d e67e 31bd 3fe1 26bc
00000180: d89c 7e3d 79b8 183e 1861 993d a5d8 57bd
00000190: 7034 ce3c cadb 75bd 8140 2e3e 2dcd 6b3c
000001a0: f200 163d b05d 253d f113 00bd 1fc1 083d
000001b0: b3a9 90bc 6eab 303e 7866 b4bc 18a4 42bc
000001c0: 7acb 813d 82e7 cf3d ae4c 413e f612 653d
000001d0: 5b5b 09bd c4b7 f6bb b60c 87bd 8713 42bc
000001e0: 72e3 28bb 5247 1abd 4d4d b43d 7a58 c8bc
000001f0: eda3 193e c13a 88bc 1820 143c d4f2 6b3d
0.019441938 0.21114197 -0.056470588 0.082245976 0.010337792 -0.053936336 -0.011814054 0.11419522
-0.0014733063 -0.0072628246 0.094893694 0.04262375 -0.00024292302 0.075143315 0.1682191 0.029572347
-0.009346892 -0.06539697 0.007473374 0.036768723 0.053418156 0.018049879 0.1045757 -0.0018312626
0.08529837 0.10404936 0.059176747 0.014903657 0.15970623 -0.034377486 0.07475732 -0.009627432
0.035854746 0.03970812 0.06882191 0.1083937 0.11916065 -0.023566833 -0.04399713 0.030345635
-0.03187664 -0.007624454 -0.0018867133 -0.020413779 -0.038799662 0.030015467 0.027417718 -0.0037233282
-0.010863427 0.07424044 0.026308293 0.022060063 -0.08184397 0.07698026 -0.007432889 0.04137648
0.09852261 0.01121538 0.065631285 0.08083231 -0.0135792885 -0.14744179 0.23171802 -0.01485685
0.05175652 0.042415354 -0.0068203914 -0.026796106 0.025948728 0.0065540234 0.07375857 -0.01839971
-0.025312757 -0.06862189 0.08068468 -0.11069424 0.10356112 -0.043885633 0.17993017 0.11450909
0.05578215 0.01239586 0.0037905024 0.008099271 0.05952687 0.007915388 -0.035223916 -0.003502306
0.14220108 -0.00095346116 -0.011834096 0.0016912215 -0.0190264 0.038912665 -0.04333391 -0.010185539
0.062161297 0.1491412 0.07489222 -0.052696843 0.025171489 -0.06002406 0.17016794 0.014392179
0.036621995 0.04037255 -0.031269018 0.0333873 -0.017659044 0.17252895 -0.022021517 -0.011879943
0.06337638 0.101515785 0.18876907 0.055926286 -0.03353439 -0.007529231 -0.06594221 -0.011845476
-0.0025770334 -0.037665673 0.088038065 -0.024456251 0.15003939 -0.016629579 0.009040855 0.057604626

fc2.weight f4 [64, 128]
00000000: a3bc 77bc de6c 043d 8302 c33c ebfe 63bc
00000010: 68bc 2f3d 8c21 073d 89ac 053d 946a 1d3d
00000020: e287 3fbd 58be 1dbd 56e9 153c 5475 e93c
00000030: 8f2d 21bd b60c d3bc b43b 95bc f066 aa3d
00000040: eb7c 173b 3fc8 8dbc a469 83bd f0d1 aa3c
00000050: 34d2 89bd 692d 283d 71d7 593d a7d5 02bd
00000060: fd81 74bc 7c87 9f3c c9d2 8bbd 18e4 4ebd
00000070: 8dca 2e3d f099 083c bc15 85bc ada5 933d
00000080: f432 5f3d abe6 ac3d 7c33 813d 6374 98bd
00000090: 2884 5c3d c712 69bd c948 8c3d b030 8b3d
000000a0: ff71 bcb9 0a33 03bc 296f 37bc 8c4b 9c3d
000000b0: 68df 63bd 4f09 4dbd 96ff 99bd 991d 15bd
000000c0: 18c0 e33a df2d 933d 0ad0 233d 2f50 bf3b
000000d0: 10c7 f0bc 1761 a03d 4408 7abc 96a4 1cbc
000000e0: a446 8cbd 26fb 17bd 1e12 7d3d 01a8 383d
000000f0: b550 b0bc 4ca5 883b 30c6 9d3c 771b 5f3d
00000100: 90af 703d afe7 7b3d ab2e b23d 18d5 73bd
00000110: 387e 1ebd 4ea0 a33c d9d6 013c 644e 5b3c
00000120: 7b1b b1bd 9c4e 5bbd 7203 d93c 5c80 3cbd
00000130: 5338 823d a37f a73d 23c3 82bd ceba 59bd
00000140: e146 3c3d 1cbe e5bb 7d0a 17bd 09ab e03c
00000150: 823f 653d a37d 60bd a85e 80bd bdc7 cebb
00000160: 9857 16bd a267 cbbc 4416 843b 3b0d 66bd
00000170: 650e b03c a7ec 3f3d d862 46bd e18b b4bc
00000180: 5b22 163d f5a2 223d 7d6a 5fbd 2565 19bd
00000190: d8d9 853d 7866 1f3c 1aa5 71bd 5c1f 0bbc
000001a0: b5c3 013d 0eeb 9bbd dd95 123d 1a7e b6bd
000001b0: 8f75 b03d 1a2c 2b3c 08c1 9abd 17d2 a13d
000001c0: 84cf a4bd 3a72 53bd 52f6 5e3d ea4c 983d
000001d0: 6ab7 ab3d cb69 8fbd f8a0 e23c 8ddc 3a3d
000001e0: 6d70 8bbd 8534 95bd 0a66 2ebd 21a5 953c
000001f0: fb1d ffbc 6355 503d 2fa6 1cbd 04bb 4bbd
00000200: 0d2d cd3d ac02 2abd 0667 2fbc 551a fcbd
00000210: ac2e fabc c53d 973c a472 583d 231d 93bd
00000220: b2c8 d4bd a099 303d 2ca1 e63c 2277 683c
00000230: f0df 853d 0c2d 523c 63b4 143e 7714 bebd
00000240: c90a bcbd c643 b9bd 7b9a 2fbd ba48 4b3d
00000250: 4f08 a13d 6ac2 773d e32b 6ebd 57c5 853d
00000260: 894b a23d d079 673b f053 893d 0afb 983d
00000270: b8ce bb3d ff6d 1b3d c103 a93d f821 16bd
00000280: 8ebc d2bb 3f84 cc3d 93e9 963b 34c0 4c3d
00000290: 27b0 4dbd 0dee 56bb 9220 3cbd 87b7 80bd
000002a0: 60aa 41bd 8f60 c13d 393b 193c 3a0e ea3d
000002b0: f159 09bd fc79 74bc ad8a 41bc eeec 5abd
000002c0: 5b61 f73d af49 b3bd d6c9 c33d a2b4 023d
000002d0: ecd5 f43d 9ef1 c6bc 1378 c8bd e620 483d
000002e0: 61b4 5a3d d246 da3d 1500 d13d bfbe eb3d
000002f0: 2ed4 8e3d fe45 88bd 7824 103e e88f afbc
00000300: 7f08 5dbd 76cf 8bbd 2451 37bd 474c 4f3d
00000310: 0e57 8bbd d859 063e 43c5 68bd 012d 3c3c
00000320: 872b 923d 94f7 98bd 9ab2 43bd 233b b2bd
00000330: 10e8 d33d 0edc e8bc 86fa f73d c7a1 833d
00000340: 06ce 983c 3bb2 b3bd cbab ba3d 0043 4bbd
00000350: 87e8 513c 59a0 863c 36fb 88bd 4bbf 8c3c
00000360: 906d 6cbc 7a81 57bd bdea 84bd ca83 69bc
00000370: 57f2 6bbc 0921 e2bd 2db9 ec3c e3f5 b2bb
00000380: 1e2d 0a3e a5c1 4abd 215f 8c3d a0d0 54bd
00000390: 3d90 25bd 5c4a cebc 9950 823d 2af7 133d
000003a0: 4e4d cb3c 3e60 c53d 1c57 62bd 353d 9a3d
000003b0: 722a b23d 620b 013e 9d75 26bd bfd7 4b3d
000003c0: 9d97 b0bc b404 c63d e621 9f3d 0a81 9e3d
000003d0: 36d4 09be cf89 f9bc c6b1 76bd 861a 953d
000003e0: 2fba 46bc 34f1 793d 5717 b13d d99c 223d
000003f0: 33d8 8cbc 9c89 5ebd d313 b4bc 724a c6bd
-0.015120658 0.032330386 0.023804909 -0.013915758 0.042904288 0.032990977 0.032635245 0.03843172
-0.046760447 -0.038511604 0.00914987 0.02849833 -0.03935009 -0.025762897 -0.018216945 0.08320415
0.0023115228 -0.017307399 -0.06416634 0.02085206 -0.06729546 0.04105893 0.053183977 -0.031942036
-0.01492357 0.019473784 -0.068273135 -0.050510496 0.042673636 0.008337483 -0.016245715 0.072093345
0.054491952 0.08442434 0.06308648 -0.07444074 0.05383697 -0.056902673 0.0684982 0.06796396
-0.00035943088 -0.008007774 -0.011195936 0.07631597 -0.05563298 -0.050057705 -0.07519452 -0.03640518
0.0017375974 0.071864836 0.039993323 0.005838416 -0.029391795 0.078310184 -0.01526076 -0.009560725
-0.06849411 -0.03710475 0.061784856 0.045082096 -0.02152286 0.0041700955 0.019259542 0.054469552
0.05876118 0.061500248 0.087003075 -0.059529394 -0.03869459 0.0199739 0.007924759 0.013385389
-0.086478196 -0.053541765 0.0264909 -0.04602085 0.06358399 0.08178642 -0.063848756 -0.053156666
0.045966033 -0.007011188 -0.036875237 0.027425306 0.05596877 -0.054807317 -0.06268054 -0.0063104318
-0.03670463 -0.02482969 0.0040309746 -0.05616496 0.021491239 0.04685655 -0.04843411 -0.022039356
0.036653858 0.03970619 -0.054544915 -0.037449975 0.06535691 0.00972902 -0.058995344 -0.008491363
0.03168078 -0.076131925 0.035787452 -0.08910771 0.086161725 0.010447526 -0.07556349 0.079013996
-0.08047393 -0.051622607 0.054434128 0.07436545 0.08384593 -0.070026 0.027664647 0.04562049
-0.06808553 -0.07285408 -0.04257778 0.018267216 -0.031142225 0.05086268 -0.038244423 -0.0497389
0.100183584 -0.041506454 -0.010705715 -0.1230971 -0.030539833 0.018462071 0.052843705 -0.07183292
-0.10389842 0.04311526 0.028153025 0.01418856 0.06536853 0.012828123 0.14521937 -0.09281247
-0.091817446 -0.0904613 -0.042871933 0.049629904 0.07862913 0.060488142 -0.058147322 0.0653178
0.079245634 0.0035320409 0.06705463 0.07469757 0.09170288 0.037946697 0.08252669 -0.03665349
-0.006431169 0.099861614 0.004605481 0.049987987 -0.05021682 -0.0032795698 -0.0459295 -0.06285005
-0.047281623 0.09442245 0.009352499 0.11428495 -0.03353304 -0.0149216615 -0.011812848 -0.05344861
0.12079116 -0.087542884 0.095599815 0.031910546 0.11954865 -0.024285134 -0.09788527 0.0488595
0.05339468 0.10658039 0.10205094 0.11510991 0.06974064 -0.06653975 0.14076412 -0.021430925
-0.05396318 -0.068266794 -0.044755116 0.050609853 -0.06803714 0.1312021 -0.05682875 0.011485339
0.071372084 -0.07469097 -0.04777775 -0.08702686 0.10346997 -0.028425243 0.121083304 0.06427341
0.018652927 -0.08774229 0.09114798 -0.049624443 0.0128117865 0.016433882 -0.0668854 0.01718106
-0.014430419 -0.052613713 -0.06490085 -0.014252612 -0.01440104 -0.11041457 0.028896892 -0.005461441
0.13493773 -0.04950108 0.06854082 -0.051956773 -0.04042076 -0.025181942 0.06363029 0.036124386
0.024817135 0.09637497 -0.055258855 0.075312056 0.08699502 0.12601998 -0.04063951 0.0497663
-0.02155667 0.09668866 0.077701375 0.07739456 -0.13459858 -0.03046122 -0.06022813 0.072804496
-0.012129351 0.061021045 0.0864703 0.039700363 -0.017192936 -0.054330453 -0.02198211 -0.09682168

fc2.bias f4 [64]
00000000: 5249 8dbd 1bb7 b63d d20f 8dbd 7832 163e
00000010: c76c 313c 4dba 77bd f58f 87bd 2738 ab3c
00000020: 3039 94bc 9454 c3bc 96eb f8bc b49f 223e
00000030: b72a d0bc d1ef 5ebc dcc6 15be dfae aa3d
00000040: 3e3b 6b3e f31f 94ba f533 c63d 833b 8d3c
00000050: 2c73 dbbd c259 47bd a3d2 9b3e 3b17 fa3d
00000060: caeb f13c ac73 bb3e 8952 473e 46a2 22bc
00000070: 8f86 cabd 3643 3e3e 1608 3d3e d3a5 243e
00000080: 5211 a13d e15d 3c3b fe40 1fbd 4b18 983e
00000090: 7796 6b3d 69f5 24bd a399 343d 6a25 7dbd
000000a0: 3ad8 83bd a87e a63d 535f 2e3e 27f2 1e3e
000000b0: 1373 b23d c00f 963e f6ff e43d 250d bfbd
000000c0: dde1 2e3e dae0 8fbd 06e8 09bd 736b eb3d
000000d0: e813 193c 36f2 7dbd ce5a bdbc 28a9 953d
000000e0: 7822 c93d 82b3 dd3d 260b 263e 820a 02bd
000000f0: 44f3 62bd 2d98 60bd 5122 1b3e 9652 053e
-0.0689875 0.08921643 -0.06887783 0.1466769 0.010829157 -0.060480405 -0.066192545 0.020900799
-0.018093675 -0.02384404 -0.030385774 0.15881234 -0.025410993 -0.013606981 -0.1462664 0.08334135
0.22971818 -0.0011301026 0.09677879 0.017240291 -0.10715327 -0.048669584 0.3043414 0.12211462
0.029531378 0.36611688 0.19465078 -0.009926384 -0.09888946 0.18580326 0.18460116 0.16078882
0.07864632 0.002874248 -0.03888034 0.29706034 0.05751654 -0.040273104 0.044091832 -0.06180326
-0.06437726 0.081296265 0.17028551 0.15522061 0.08713355 0.2930889 0.11181633 -0.09328679
0.17078348 -0.07025309 -0.03366854 0.11495104 0.009343125 -0.06199857 -0.023114588 0.073076546
0.098210275 0.10825254 0.1621519 -0.031748302 -0.055407777 -0.054832626 0.1514981 0.13019785

fc3.weight f4 [2, 64]
00000000: 524c a9bd 1b85 d6be a6b3 643c 4fb3 cbbe
00000010: 034e 3bbe 59c8 493e 6418 c53d 44c8 1e3b
00000020: dfcd ed3c bbcd ac3d ae29 773e bf17 19bf
00000030: 38bf dcbd f38d 00be 3bd0 ce3d 6ad3 debd
00000040: 4b13 dd3e 6db7 3a3c 8432 4cbd ab7d afbe
00000050: fe67 e03c f85a 78bc 2fd5 083f 45d1 823d
00000060: 0048 ae3b b023 2d3f 47f1 d23e 5a0c f2bc
00000070: a5ca 333d 2ca8 e9be 29b2 0fbf 805a 963e
00000080: 8ca6 8fbe 18cf ffbd 84ec e6bd 74b7 173f
00000090: 2323 17be 9292 a6bd 176c 33be 8689 7b3d
000000a0: 1d77 a9bd eabc 2abe 8e16 ebbe 02df fbbe
000000b0: 3dcc 093d 2023 fc3e 200d 373e f6ad 90bd
000000c0: 6978 b63e 4977 c8bc 98a0 243e cf57 aabe
000000d0: 780b 44be bffb 383d 7108 93bd 0d1e 2e3e
000000e0: b509 e1be fd59 a6be 9969 b0be 10f5 733d
000000f0: dfa5 463e 4553 e93d 893e c8be d7f8 a93d
00000100: ac8f f2bc 0e88 5b3e 4761 9e3b ad00 d03e
00000110: 82bf 973c 06a4 82bd 2573 093d 295c 0bbe
00000120: 5b88 be3d ce90 a93b a1db 68be a340 0d3f
00000130: d43b e5bd 62d5 5f3d 520d 27be 508c 803e
00000140: f0ff f0be c8db d73c 672b 26be d316 013e
00000150: c7d9 42be 8504 9bbd b302 d1be 0329 6fbe
00000160: 9d9e b43d f6ef 2fbf 7003 fcbe c619 613e
00000170: 45d0 4fbe 6970 0e3f e7ca 103f b93f 70be
00000180: de12 523e 0ad4 30bd 2c7f 26bd 050e d8be
00000190: 037e 7c3d 478f c1bd fd2d 8d3d d2c5 e43d
000001a0: 36e6 b73d 77dc a33e 1500 973e 0572 fe3e
000001b0: cf93 ffbd 8ffc f2be 7f15 16be c0e6 993d
000001c0: 7e45 b3be 642b 04bd 1b3b 02be b6a7 a73e
000001d0: d68e f63d 5817 673d bc1f 2d3d 225b 2fbe
000001e0: 9cbd e63e a829 473e ff16 c43e 81aa b33d
000001f0: 8f29 4bbd 5e1f 16bd e014 7c3e 7998 7abe
-0.0826651 -0.41898426 0.013958847 -0.3978524 -0.18291478 0.19705333 0.09623793 0.0024228254
0.029028831 0.084376775 0.24136993 -0.5980186 -0.107786596 -0.1255415 0.100983106 -0.10880168
0.43178782 0.011396271 -0.049852863 -0.34275565 0.027393337 -0.015158407 0.5345029 0.06387571
0.0053186417 0.6763258 0.41199705 -0.029546905 0.04389443 -0.45636117 -0.56131226 0.2936592
-0.28056753 -0.12490672 -0.112755805 0.592643 -0.14759497 -0.08133425 -0.17521702 0.06141045
-0.08274672 -0.16673627 -0.45915645 -0.4919358 0.033642042 0.49245548 0.178761 -0.070644304
0.3563874 -0.024470942 0.16076887 -0.33270118 -0.19145 0.04516196 -0.071793444 0.17003651
-0.43952718 -0.3249053 -0.34455565 0.05955988 0.19399212 0.113928355 -0.3911021 0.082994156
-0.029609524 0.2143862 0.0048333737 0.40625516 0.018523935 -0.06378941 0.033557076 -0.13609375
0.093033515 0.0051747328 -0.22740032 0.5517675 -0.11193052 0.054646857 -0.16313675 0.2510705
-0.47070265 0.026349917 -0.16227494 0.12606363 -0.19028388 -0.075692214 -0.40822372 -0.23355488
0.088193156 -0.68725526 -0.49221373 0.21982488 -0.20294292 0.55640274 0.56559604 -0.23461808
0.2051501 -0.043170966 -0.040648624 -0.42198196 0.06164361 -0.09451156 0.06893537 0.11170544
0.08979456 0.3200414 0.2949225 0.49696365 -0.12479364 -0.47458312 -0.14656638 0.07514715
-0.35013956 -0.032267943 -0.1271786 0.3274514 0.120389625 0.056418747 0.042266592 -0.17124608
0.45066535 0.19449484 0.38298795 0.087727554 -0.04960018 -0.036651008 0.24617338 -0.24472226

fc3.bias f4 [2]
00000000: 263c 683e e379 e6be
0.22679195 -0.45014867
